node {
  name: "global_step/Initializer/zeros"
  op: "Const"
  attr {
    key: "_class"
    value {
      list {
        s: "loc:@global_step"
      }
    }
  }
  attr {
    key: "_output_shapes"
    value {
      list {
        shape {
        }
      }
    }
  }
  attr {
    key: "dtype"
    value {
      type: DT_INT64
    }
  }
  attr {
    key: "value"
    value {
      tensor {
        dtype: DT_INT64
        tensor_shape {
        }
        int64_val: 0
      }
    }
  }
}
node {
  name: "global_step"
  op: "VariableV2"
  attr {
    key: "_class"
    value {
      list {
        s: "loc:@global_step"
      }
    }
  }
  attr {
    key: "_output_shapes"
    value {
      list {
        shape {
        }
      }
    }
  }
  attr {
    key: "container"
    value {
      s: ""
    }
  }
  attr {
    key: "dtype"
    value {
      type: DT_INT64
    }
  }
  attr {
    key: "shape"
    value {
      shape {
      }
    }
  }
  attr {
    key: "shared_name"
    value {
      s: ""
    }
  }
}
node {
  name: "global_step/Assign"
  op: "Assign"
  input: "global_step"
  input: "global_step/Initializer/zeros"
  attr {
    key: "T"
    value {
      type: DT_INT64
    }
  }
  attr {
    key: "_class"
    value {
      list {
        s: "loc:@global_step"
      }
    }
  }
  attr {
    key: "_output_shapes"
    value {
      list {
        shape {
        }
      }
    }
  }
  attr {
    key: "use_locking"
    value {
      b: true
    }
  }
  attr {
    key: "validate_shape"
    value {
      b: true
    }
  }
}
node {
  name: "global_step/read"
  op: "Identity"
  input: "global_step"
  attr {
    key: "T"
    value {
      type: DT_INT64
    }
  }
  attr {
    key: "_class"
    value {
      list {
        s: "loc:@global_step"
      }
    }
  }
  attr {
    key: "_output_shapes"
    value {
      list {
        shape {
        }
      }
    }
  }
}
node {
  name: "matching_filenames/MatchingFiles/pattern"
  op: "Const"
  attr {
    key: "_output_shapes"
    value {
      list {
        shape {
        }
      }
    }
  }
  attr {
    key: "dtype"
    value {
      type: DT_STRING
    }
  }
  attr {
    key: "value"
    value {
      tensor {
        dtype: DT_STRING
        tensor_shape {
        }
        string_val: "train.csv"
      }
    }
  }
}
node {
  name: "matching_filenames/MatchingFiles"
  op: "MatchingFiles"
  input: "matching_filenames/MatchingFiles/pattern"
  attr {
    key: "_output_shapes"
    value {
      list {
        shape {
          dim {
            size: -1
          }
        }
      }
    }
  }
}
node {
  name: "matching_filenames"
  op: "VariableV2"
  attr {
    key: "_output_shapes"
    value {
      list {
        shape {
          unknown_rank: true
        }
      }
    }
  }
  attr {
    key: "container"
    value {
      s: ""
    }
  }
  attr {
    key: "dtype"
    value {
      type: DT_STRING
    }
  }
  attr {
    key: "shape"
    value {
      shape {
        unknown_rank: true
      }
    }
  }
  attr {
    key: "shared_name"
    value {
      s: ""
    }
  }
}
node {
  name: "matching_filenames/Assign"
  op: "Assign"
  input: "matching_filenames"
  input: "matching_filenames/MatchingFiles"
  attr {
    key: "T"
    value {
      type: DT_STRING
    }
  }
  attr {
    key: "_class"
    value {
      list {
        s: "loc:@matching_filenames"
      }
    }
  }
  attr {
    key: "_output_shapes"
    value {
      list {
        shape {
          dim {
            size: -1
          }
        }
      }
    }
  }
  attr {
    key: "use_locking"
    value {
      b: true
    }
  }
  attr {
    key: "validate_shape"
    value {
      b: false
    }
  }
}
node {
  name: "matching_filenames/read"
  op: "Identity"
  input: "matching_filenames"
  attr {
    key: "T"
    value {
      type: DT_STRING
    }
  }
  attr {
    key: "_class"
    value {
      list {
        s: "loc:@matching_filenames"
      }
    }
  }
  attr {
    key: "_output_shapes"
    value {
      list {
        shape {
          unknown_rank: true
        }
      }
    }
  }
}
node {
  name: "input_producer/Size"
  op: "Size"
  input: "matching_filenames/read"
  attr {
    key: "T"
    value {
      type: DT_STRING
    }
  }
  attr {
    key: "_output_shapes"
    value {
      list {
        shape {
        }
      }
    }
  }
  attr {
    key: "out_type"
    value {
      type: DT_INT32
    }
  }
}
node {
  name: "input_producer/Greater/y"
  op: "Const"
  attr {
    key: "_output_shapes"
    value {
      list {
        shape {
        }
      }
    }
  }
  attr {
    key: "dtype"
    value {
      type: DT_INT32
    }
  }
  attr {
    key: "value"
    value {
      tensor {
        dtype: DT_INT32
        tensor_shape {
        }
        int_val: 0
      }
    }
  }
}
node {
  name: "input_producer/Greater"
  op: "Greater"
  input: "input_producer/Size"
  input: "input_producer/Greater/y"
  attr {
    key: "T"
    value {
      type: DT_INT32
    }
  }
  attr {
    key: "_output_shapes"
    value {
      list {
        shape {
        }
      }
    }
  }
}
node {
  name: "input_producer/Assert/Const"
  op: "Const"
  attr {
    key: "_output_shapes"
    value {
      list {
        shape {
        }
      }
    }
  }
  attr {
    key: "dtype"
    value {
      type: DT_STRING
    }
  }
  attr {
    key: "value"
    value {
      tensor {
        dtype: DT_STRING
        tensor_shape {
        }
        string_val: "string_input_producer requires a non-null input tensor"
      }
    }
  }
}
node {
  name: "input_producer/Assert/Assert/data_0"
  op: "Const"
  attr {
    key: "_output_shapes"
    value {
      list {
        shape {
        }
      }
    }
  }
  attr {
    key: "dtype"
    value {
      type: DT_STRING
    }
  }
  attr {
    key: "value"
    value {
      tensor {
        dtype: DT_STRING
        tensor_shape {
        }
        string_val: "string_input_producer requires a non-null input tensor"
      }
    }
  }
}
node {
  name: "input_producer/Assert/Assert"
  op: "Assert"
  input: "input_producer/Greater"
  input: "input_producer/Assert/Assert/data_0"
  attr {
    key: "T"
    value {
      list {
        type: DT_STRING
      }
    }
  }
  attr {
    key: "summarize"
    value {
      i: 3
    }
  }
}
node {
  name: "input_producer/Identity"
  op: "Identity"
  input: "matching_filenames/read"
  input: "^input_producer/Assert/Assert"
  attr {
    key: "T"
    value {
      type: DT_STRING
    }
  }
  attr {
    key: "_output_shapes"
    value {
      list {
        shape {
          unknown_rank: true
        }
      }
    }
  }
}
node {
  name: "input_producer/RandomShuffle"
  op: "RandomShuffle"
  input: "input_producer/Identity"
  attr {
    key: "T"
    value {
      type: DT_STRING
    }
  }
  attr {
    key: "_output_shapes"
    value {
      list {
        shape {
          unknown_rank: true
        }
      }
    }
  }
  attr {
    key: "seed"
    value {
      i: 0
    }
  }
  attr {
    key: "seed2"
    value {
      i: 0
    }
  }
}
node {
  name: "input_producer/limit_epochs/Const"
  op: "Const"
  attr {
    key: "_output_shapes"
    value {
      list {
        shape {
        }
      }
    }
  }
  attr {
    key: "dtype"
    value {
      type: DT_INT64
    }
  }
  attr {
    key: "value"
    value {
      tensor {
        dtype: DT_INT64
        tensor_shape {
        }
        int64_val: 0
      }
    }
  }
}
node {
  name: "input_producer/limit_epochs/epochs"
  op: "VariableV2"
  attr {
    key: "_output_shapes"
    value {
      list {
        shape {
        }
      }
    }
  }
  attr {
    key: "container"
    value {
      s: ""
    }
  }
  attr {
    key: "dtype"
    value {
      type: DT_INT64
    }
  }
  attr {
    key: "shape"
    value {
      shape {
      }
    }
  }
  attr {
    key: "shared_name"
    value {
      s: ""
    }
  }
}
node {
  name: "input_producer/limit_epochs/epochs/Assign"
  op: "Assign"
  input: "input_producer/limit_epochs/epochs"
  input: "input_producer/limit_epochs/Const"
  attr {
    key: "T"
    value {
      type: DT_INT64
    }
  }
  attr {
    key: "_class"
    value {
      list {
        s: "loc:@input_producer/limit_epochs/epochs"
      }
    }
  }
  attr {
    key: "_output_shapes"
    value {
      list {
        shape {
        }
      }
    }
  }
  attr {
    key: "use_locking"
    value {
      b: true
    }
  }
  attr {
    key: "validate_shape"
    value {
      b: true
    }
  }
}
node {
  name: "input_producer/limit_epochs/epochs/read"
  op: "Identity"
  input: "input_producer/limit_epochs/epochs"
  attr {
    key: "T"
    value {
      type: DT_INT64
    }
  }
  attr {
    key: "_class"
    value {
      list {
        s: "loc:@input_producer/limit_epochs/epochs"
      }
    }
  }
  attr {
    key: "_output_shapes"
    value {
      list {
        shape {
        }
      }
    }
  }
}
node {
  name: "input_producer/limit_epochs/CountUpTo"
  op: "CountUpTo"
  input: "input_producer/limit_epochs/epochs"
  attr {
    key: "T"
    value {
      type: DT_INT64
    }
  }
  attr {
    key: "_class"
    value {
      list {
        s: "loc:@input_producer/limit_epochs/epochs"
      }
    }
  }
  attr {
    key: "_output_shapes"
    value {
      list {
        shape {
        }
      }
    }
  }
  attr {
    key: "limit"
    value {
      i: 100
    }
  }
}
node {
  name: "input_producer/limit_epochs"
  op: "Identity"
  input: "input_producer/RandomShuffle"
  input: "^input_producer/limit_epochs/CountUpTo"
  attr {
    key: "T"
    value {
      type: DT_STRING
    }
  }
  attr {
    key: "_output_shapes"
    value {
      list {
        shape {
          unknown_rank: true
        }
      }
    }
  }
}
node {
  name: "input_producer"
  op: "FIFOQueueV2"
  attr {
    key: "_output_shapes"
    value {
      list {
        shape {
        }
      }
    }
  }
  attr {
    key: "capacity"
    value {
      i: 32
    }
  }
  attr {
    key: "component_types"
    value {
      list {
        type: DT_STRING
      }
    }
  }
  attr {
    key: "container"
    value {
      s: ""
    }
  }
  attr {
    key: "shapes"
    value {
      list {
        shape {
        }
      }
    }
  }
  attr {
    key: "shared_name"
    value {
      s: ""
    }
  }
}
node {
  name: "input_producer/input_producer_EnqueueMany"
  op: "QueueEnqueueManyV2"
  input: "input_producer"
  input: "input_producer/limit_epochs"
  attr {
    key: "Tcomponents"
    value {
      list {
        type: DT_STRING
      }
    }
  }
  attr {
    key: "timeout_ms"
    value {
      i: -1
    }
  }
}
node {
  name: "input_producer/input_producer_Close"
  op: "QueueCloseV2"
  input: "input_producer"
  attr {
    key: "cancel_pending_enqueues"
    value {
      b: false
    }
  }
}
node {
  name: "input_producer/input_producer_Close_1"
  op: "QueueCloseV2"
  input: "input_producer"
  attr {
    key: "cancel_pending_enqueues"
    value {
      b: true
    }
  }
}
node {
  name: "input_producer/input_producer_Size"
  op: "QueueSizeV2"
  input: "input_producer"
  attr {
    key: "_output_shapes"
    value {
      list {
        shape {
        }
      }
    }
  }
}
node {
  name: "input_producer/Cast"
  op: "Cast"
  input: "input_producer/input_producer_Size"
  attr {
    key: "DstT"
    value {
      type: DT_FLOAT
    }
  }
  attr {
    key: "SrcT"
    value {
      type: DT_INT32
    }
  }
  attr {
    key: "_output_shapes"
    value {
      list {
        shape {
        }
      }
    }
  }
}
node {
  name: "input_producer/mul/y"
  op: "Const"
  attr {
    key: "_output_shapes"
    value {
      list {
        shape {
        }
      }
    }
  }
  attr {
    key: "dtype"
    value {
      type: DT_FLOAT
    }
  }
  attr {
    key: "value"
    value {
      tensor {
        dtype: DT_FLOAT
        tensor_shape {
        }
        float_val: 0.03125
      }
    }
  }
}
node {
  name: "input_producer/mul"
  op: "Mul"
  input: "input_producer/Cast"
  input: "input_producer/mul/y"
  attr {
    key: "T"
    value {
      type: DT_FLOAT
    }
  }
  attr {
    key: "_output_shapes"
    value {
      list {
        shape {
        }
      }
    }
  }
}
node {
  name: "input_producer/fraction_of_32_full/tags"
  op: "Const"
  attr {
    key: "_output_shapes"
    value {
      list {
        shape {
        }
      }
    }
  }
  attr {
    key: "dtype"
    value {
      type: DT_STRING
    }
  }
  attr {
    key: "value"
    value {
      tensor {
        dtype: DT_STRING
        tensor_shape {
        }
        string_val: "input_producer/fraction_of_32_full"
      }
    }
  }
}
node {
  name: "input_producer/fraction_of_32_full"
  op: "ScalarSummary"
  input: "input_producer/fraction_of_32_full/tags"
  input: "input_producer/mul"
  attr {
    key: "T"
    value {
      type: DT_FLOAT
    }
  }
  attr {
    key: "_output_shapes"
    value {
      list {
        shape {
        }
      }
    }
  }
}
node {
  name: "TextLineReaderV2"
  op: "TextLineReaderV2"
  attr {
    key: "_output_shapes"
    value {
      list {
        shape {
        }
      }
    }
  }
  attr {
    key: "container"
    value {
      s: ""
    }
  }
  attr {
    key: "shared_name"
    value {
      s: ""
    }
  }
  attr {
    key: "skip_header_lines"
    value {
      i: 0
    }
  }
}
node {
  name: "ReaderReadUpToV2/num_records"
  op: "Const"
  attr {
    key: "_output_shapes"
    value {
      list {
        shape {
        }
      }
    }
  }
  attr {
    key: "dtype"
    value {
      type: DT_INT64
    }
  }
  attr {
    key: "value"
    value {
      tensor {
        dtype: DT_INT64
        tensor_shape {
        }
        int64_val: 20
      }
    }
  }
}
node {
  name: "ReaderReadUpToV2"
  op: "ReaderReadUpToV2"
  input: "TextLineReaderV2"
  input: "input_producer"
  input: "ReaderReadUpToV2/num_records"
  attr {
    key: "_output_shapes"
    value {
      list {
        shape {
          dim {
            size: -1
          }
        }
        shape {
          dim {
            size: -1
          }
        }
      }
    }
  }
}
node {
  name: "ExpandDims/dim"
  op: "Const"
  attr {
    key: "_output_shapes"
    value {
      list {
        shape {
        }
      }
    }
  }
  attr {
    key: "dtype"
    value {
      type: DT_INT32
    }
  }
  attr {
    key: "value"
    value {
      tensor {
        dtype: DT_INT32
        tensor_shape {
        }
        int_val: -1
      }
    }
  }
}
node {
  name: "ExpandDims"
  op: "ExpandDims"
  input: "ReaderReadUpToV2:1"
  input: "ExpandDims/dim"
  attr {
    key: "T"
    value {
      type: DT_STRING
    }
  }
  attr {
    key: "Tdim"
    value {
      type: DT_INT32
    }
  }
  attr {
    key: "_output_shapes"
    value {
      list {
        shape {
          dim {
            size: -1
          }
          dim {
            size: 1
          }
        }
      }
    }
  }
}
node {
  name: "DecodeCSV/record_defaults_0"
  op: "Const"
  attr {
    key: "_output_shapes"
    value {
      list {
        shape {
          dim {
            size: 1
          }
        }
      }
    }
  }
  attr {
    key: "dtype"
    value {
      type: DT_FLOAT
    }
  }
  attr {
    key: "value"
    value {
      tensor {
        dtype: DT_FLOAT
        tensor_shape {
          dim {
            size: 1
          }
        }
        float_val: 0.0
      }
    }
  }
}
node {
  name: "DecodeCSV/record_defaults_1"
  op: "Const"
  attr {
    key: "_output_shapes"
    value {
      list {
        shape {
          dim {
            size: 1
          }
        }
      }
    }
  }
  attr {
    key: "dtype"
    value {
      type: DT_FLOAT
    }
  }
  attr {
    key: "value"
    value {
      tensor {
        dtype: DT_FLOAT
        tensor_shape {
          dim {
            size: 1
          }
        }
        float_val: 0.0
      }
    }
  }
}
node {
  name: "DecodeCSV/record_defaults_2"
  op: "Const"
  attr {
    key: "_output_shapes"
    value {
      list {
        shape {
          dim {
            size: 1
          }
        }
      }
    }
  }
  attr {
    key: "dtype"
    value {
      type: DT_FLOAT
    }
  }
  attr {
    key: "value"
    value {
      tensor {
        dtype: DT_FLOAT
        tensor_shape {
          dim {
            size: 1
          }
        }
        float_val: 0.0
      }
    }
  }
}
node {
  name: "DecodeCSV/record_defaults_3"
  op: "Const"
  attr {
    key: "_output_shapes"
    value {
      list {
        shape {
          dim {
            size: 1
          }
        }
      }
    }
  }
  attr {
    key: "dtype"
    value {
      type: DT_FLOAT
    }
  }
  attr {
    key: "value"
    value {
      tensor {
        dtype: DT_FLOAT
        tensor_shape {
          dim {
            size: 1
          }
        }
        float_val: 0.0
      }
    }
  }
}
node {
  name: "DecodeCSV/record_defaults_4"
  op: "Const"
  attr {
    key: "_output_shapes"
    value {
      list {
        shape {
          dim {
            size: 1
          }
        }
      }
    }
  }
  attr {
    key: "dtype"
    value {
      type: DT_FLOAT
    }
  }
  attr {
    key: "value"
    value {
      tensor {
        dtype: DT_FLOAT
        tensor_shape {
          dim {
            size: 1
          }
        }
        float_val: 0.0
      }
    }
  }
}
node {
  name: "DecodeCSV/record_defaults_5"
  op: "Const"
  attr {
    key: "_output_shapes"
    value {
      list {
        shape {
          dim {
            size: 1
          }
        }
      }
    }
  }
  attr {
    key: "dtype"
    value {
      type: DT_FLOAT
    }
  }
  attr {
    key: "value"
    value {
      tensor {
        dtype: DT_FLOAT
        tensor_shape {
          dim {
            size: 1
          }
        }
        float_val: 0.0
      }
    }
  }
}
node {
  name: "DecodeCSV/record_defaults_6"
  op: "Const"
  attr {
    key: "_output_shapes"
    value {
      list {
        shape {
          dim {
            size: 1
          }
        }
      }
    }
  }
  attr {
    key: "dtype"
    value {
      type: DT_FLOAT
    }
  }
  attr {
    key: "value"
    value {
      tensor {
        dtype: DT_FLOAT
        tensor_shape {
          dim {
            size: 1
          }
        }
        float_val: 0.0
      }
    }
  }
}
node {
  name: "DecodeCSV/record_defaults_7"
  op: "Const"
  attr {
    key: "_output_shapes"
    value {
      list {
        shape {
          dim {
            size: 1
          }
        }
      }
    }
  }
  attr {
    key: "dtype"
    value {
      type: DT_FLOAT
    }
  }
  attr {
    key: "value"
    value {
      tensor {
        dtype: DT_FLOAT
        tensor_shape {
          dim {
            size: 1
          }
        }
        float_val: 0.0
      }
    }
  }
}
node {
  name: "DecodeCSV/record_defaults_8"
  op: "Const"
  attr {
    key: "_output_shapes"
    value {
      list {
        shape {
          dim {
            size: 1
          }
        }
      }
    }
  }
  attr {
    key: "dtype"
    value {
      type: DT_FLOAT
    }
  }
  attr {
    key: "value"
    value {
      tensor {
        dtype: DT_FLOAT
        tensor_shape {
          dim {
            size: 1
          }
        }
        float_val: 0.0
      }
    }
  }
}
node {
  name: "DecodeCSV/record_defaults_9"
  op: "Const"
  attr {
    key: "_output_shapes"
    value {
      list {
        shape {
          dim {
            size: 1
          }
        }
      }
    }
  }
  attr {
    key: "dtype"
    value {
      type: DT_FLOAT
    }
  }
  attr {
    key: "value"
    value {
      tensor {
        dtype: DT_FLOAT
        tensor_shape {
          dim {
            size: 1
          }
        }
        float_val: 0.0
      }
    }
  }
}
node {
  name: "DecodeCSV/record_defaults_10"
  op: "Const"
  attr {
    key: "_output_shapes"
    value {
      list {
        shape {
          dim {
            size: 1
          }
        }
      }
    }
  }
  attr {
    key: "dtype"
    value {
      type: DT_FLOAT
    }
  }
  attr {
    key: "value"
    value {
      tensor {
        dtype: DT_FLOAT
        tensor_shape {
          dim {
            size: 1
          }
        }
        float_val: 0.0
      }
    }
  }
}
node {
  name: "DecodeCSV/record_defaults_11"
  op: "Const"
  attr {
    key: "_output_shapes"
    value {
      list {
        shape {
          dim {
            size: 1
          }
        }
      }
    }
  }
  attr {
    key: "dtype"
    value {
      type: DT_FLOAT
    }
  }
  attr {
    key: "value"
    value {
      tensor {
        dtype: DT_FLOAT
        tensor_shape {
          dim {
            size: 1
          }
        }
        float_val: 0.0
      }
    }
  }
}
node {
  name: "DecodeCSV"
  op: "DecodeCSV"
  input: "ExpandDims"
  input: "DecodeCSV/record_defaults_0"
  input: "DecodeCSV/record_defaults_1"
  input: "DecodeCSV/record_defaults_2"
  input: "DecodeCSV/record_defaults_3"
  input: "DecodeCSV/record_defaults_4"
  input: "DecodeCSV/record_defaults_5"
  input: "DecodeCSV/record_defaults_6"
  input: "DecodeCSV/record_defaults_7"
  input: "DecodeCSV/record_defaults_8"
  input: "DecodeCSV/record_defaults_9"
  input: "DecodeCSV/record_defaults_10"
  input: "DecodeCSV/record_defaults_11"
  attr {
    key: "OUT_TYPE"
    value {
      list {
        type: DT_FLOAT
        type: DT_FLOAT
        type: DT_FLOAT
        type: DT_FLOAT
        type: DT_FLOAT
        type: DT_FLOAT
        type: DT_FLOAT
        type: DT_FLOAT
        type: DT_FLOAT
        type: DT_FLOAT
        type: DT_FLOAT
        type: DT_FLOAT
      }
    }
  }
  attr {
    key: "_output_shapes"
    value {
      list {
        shape {
          dim {
            size: -1
          }
          dim {
            size: 1
          }
        }
        shape {
          dim {
            size: -1
          }
          dim {
            size: 1
          }
        }
        shape {
          dim {
            size: -1
          }
          dim {
            size: 1
          }
        }
        shape {
          dim {
            size: -1
          }
          dim {
            size: 1
          }
        }
        shape {
          dim {
            size: -1
          }
          dim {
            size: 1
          }
        }
        shape {
          dim {
            size: -1
          }
          dim {
            size: 1
          }
        }
        shape {
          dim {
            size: -1
          }
          dim {
            size: 1
          }
        }
        shape {
          dim {
            size: -1
          }
          dim {
            size: 1
          }
        }
        shape {
          dim {
            size: -1
          }
          dim {
            size: 1
          }
        }
        shape {
          dim {
            size: -1
          }
          dim {
            size: 1
          }
        }
        shape {
          dim {
            size: -1
          }
          dim {
            size: 1
          }
        }
        shape {
          dim {
            size: -1
          }
          dim {
            size: 1
          }
        }
      }
    }
  }
  attr {
    key: "field_delim"
    value {
      s: ","
    }
  }
  attr {
    key: "use_quote_delim"
    value {
      b: true
    }
  }
}
node {
  name: "concat/axis"
  op: "Const"
  attr {
    key: "_output_shapes"
    value {
      list {
        shape {
        }
      }
    }
  }
  attr {
    key: "dtype"
    value {
      type: DT_INT32
    }
  }
  attr {
    key: "value"
    value {
      tensor {
        dtype: DT_INT32
        tensor_shape {
        }
        int_val: 1
      }
    }
  }
}
node {
  name: "concat"
  op: "ConcatV2"
  input: "DecodeCSV"
  input: "DecodeCSV:1"
  input: "DecodeCSV:2"
  input: "DecodeCSV:3"
  input: "DecodeCSV:4"
  input: "DecodeCSV:5"
  input: "DecodeCSV:6"
  input: "DecodeCSV:7"
  input: "DecodeCSV:8"
  input: "DecodeCSV:9"
  input: "concat/axis"
  attr {
    key: "N"
    value {
      i: 10
    }
  }
  attr {
    key: "T"
    value {
      type: DT_FLOAT
    }
  }
  attr {
    key: "Tidx"
    value {
      type: DT_INT32
    }
  }
  attr {
    key: "_output_shapes"
    value {
      list {
        shape {
          dim {
            size: -1
          }
          dim {
            size: 10
          }
        }
      }
    }
  }
}
node {
  name: "concat_1/axis"
  op: "Const"
  attr {
    key: "_output_shapes"
    value {
      list {
        shape {
        }
      }
    }
  }
  attr {
    key: "dtype"
    value {
      type: DT_INT32
    }
  }
  attr {
    key: "value"
    value {
      tensor {
        dtype: DT_INT32
        tensor_shape {
        }
        int_val: 1
      }
    }
  }
}
node {
  name: "concat_1"
  op: "ConcatV2"
  input: "DecodeCSV:10"
  input: "DecodeCSV:11"
  input: "concat_1/axis"
  attr {
    key: "N"
    value {
      i: 2
    }
  }
  attr {
    key: "T"
    value {
      type: DT_FLOAT
    }
  }
  attr {
    key: "Tidx"
    value {
      type: DT_INT32
    }
  }
  attr {
    key: "_output_shapes"
    value {
      list {
        shape {
          dim {
            size: -1
          }
          dim {
            size: 2
          }
        }
      }
    }
  }
}
node {
  name: "Const"
  op: "Const"
  attr {
    key: "_output_shapes"
    value {
      list {
        shape {
        }
      }
    }
  }
  attr {
    key: "dtype"
    value {
      type: DT_INT32
    }
  }
  attr {
    key: "value"
    value {
      tensor {
        dtype: DT_INT32
        tensor_shape {
        }
        int_val: 10
      }
    }
  }
}
node {
  name: "split/split_dim"
  op: "Const"
  attr {
    key: "_output_shapes"
    value {
      list {
        shape {
        }
      }
    }
  }
  attr {
    key: "dtype"
    value {
      type: DT_INT32
    }
  }
  attr {
    key: "value"
    value {
      tensor {
        dtype: DT_INT32
        tensor_shape {
        }
        int_val: 1
      }
    }
  }
}
node {
  name: "split"
  op: "Split"
  input: "split/split_dim"
  input: "concat"
  attr {
    key: "T"
    value {
      type: DT_FLOAT
    }
  }
  attr {
    key: "_output_shapes"
    value {
      list {
        shape {
          dim {
            size: -1
          }
          dim {
            size: 1
          }
        }
        shape {
          dim {
            size: -1
          }
          dim {
            size: 1
          }
        }
        shape {
          dim {
            size: -1
          }
          dim {
            size: 1
          }
        }
        shape {
          dim {
            size: -1
          }
          dim {
            size: 1
          }
        }
        shape {
          dim {
            size: -1
          }
          dim {
            size: 1
          }
        }
        shape {
          dim {
            size: -1
          }
          dim {
            size: 1
          }
        }
        shape {
          dim {
            size: -1
          }
          dim {
            size: 1
          }
        }
        shape {
          dim {
            size: -1
          }
          dim {
            size: 1
          }
        }
        shape {
          dim {
            size: -1
          }
          dim {
            size: 1
          }
        }
        shape {
          dim {
            size: -1
          }
          dim {
            size: 1
          }
        }
      }
    }
  }
  attr {
    key: "num_split"
    value {
      i: 10
    }
  }
}
node {
  name: "rnn/Shape"
  op: "Shape"
  input: "split"
  attr {
    key: "T"
    value {
      type: DT_FLOAT
    }
  }
  attr {
    key: "_output_shapes"
    value {
      list {
        shape {
          dim {
            size: 2
          }
        }
      }
    }
  }
  attr {
    key: "out_type"
    value {
      type: DT_INT32
    }
  }
}
node {
  name: "rnn/strided_slice/stack"
  op: "Const"
  attr {
    key: "_output_shapes"
    value {
      list {
        shape {
          dim {
            size: 1
          }
        }
      }
    }
  }
  attr {
    key: "dtype"
    value {
      type: DT_INT32
    }
  }
  attr {
    key: "value"
    value {
      tensor {
        dtype: DT_INT32
        tensor_shape {
          dim {
            size: 1
          }
        }
        int_val: 0
      }
    }
  }
}
node {
  name: "rnn/strided_slice/stack_1"
  op: "Const"
  attr {
    key: "_output_shapes"
    value {
      list {
        shape {
          dim {
            size: 1
          }
        }
      }
    }
  }
  attr {
    key: "dtype"
    value {
      type: DT_INT32
    }
  }
  attr {
    key: "value"
    value {
      tensor {
        dtype: DT_INT32
        tensor_shape {
          dim {
            size: 1
          }
        }
        int_val: 1
      }
    }
  }
}
node {
  name: "rnn/strided_slice/stack_2"
  op: "Const"
  attr {
    key: "_output_shapes"
    value {
      list {
        shape {
          dim {
            size: 1
          }
        }
      }
    }
  }
  attr {
    key: "dtype"
    value {
      type: DT_INT32
    }
  }
  attr {
    key: "value"
    value {
      tensor {
        dtype: DT_INT32
        tensor_shape {
          dim {
            size: 1
          }
        }
        int_val: 1
      }
    }
  }
}
node {
  name: "rnn/strided_slice"
  op: "StridedSlice"
  input: "rnn/Shape"
  input: "rnn/strided_slice/stack"
  input: "rnn/strided_slice/stack_1"
  input: "rnn/strided_slice/stack_2"
  attr {
    key: "Index"
    value {
      type: DT_INT32
    }
  }
  attr {
    key: "T"
    value {
      type: DT_INT32
    }
  }
  attr {
    key: "_output_shapes"
    value {
      list {
        shape {
        }
      }
    }
  }
  attr {
    key: "begin_mask"
    value {
      i: 0
    }
  }
  attr {
    key: "ellipsis_mask"
    value {
      i: 0
    }
  }
  attr {
    key: "end_mask"
    value {
      i: 0
    }
  }
  attr {
    key: "new_axis_mask"
    value {
      i: 0
    }
  }
  attr {
    key: "shrink_axis_mask"
    value {
      i: 1
    }
  }
}
node {
  name: "rnn/BasicLSTMCellZeroState/ExpandDims/dim"
  op: "Const"
  attr {
    key: "_output_shapes"
    value {
      list {
        shape {
        }
      }
    }
  }
  attr {
    key: "dtype"
    value {
      type: DT_INT32
    }
  }
  attr {
    key: "value"
    value {
      tensor {
        dtype: DT_INT32
        tensor_shape {
        }
        int_val: 0
      }
    }
  }
}
node {
  name: "rnn/BasicLSTMCellZeroState/ExpandDims"
  op: "ExpandDims"
  input: "rnn/strided_slice"
  input: "rnn/BasicLSTMCellZeroState/ExpandDims/dim"
  attr {
    key: "T"
    value {
      type: DT_INT32
    }
  }
  attr {
    key: "Tdim"
    value {
      type: DT_INT32
    }
  }
  attr {
    key: "_output_shapes"
    value {
      list {
        shape {
          dim {
            size: 1
          }
        }
      }
    }
  }
}
node {
  name: "rnn/BasicLSTMCellZeroState/Const"
  op: "Const"
  attr {
    key: "_output_shapes"
    value {
      list {
        shape {
          dim {
            size: 1
          }
        }
      }
    }
  }
  attr {
    key: "dtype"
    value {
      type: DT_INT32
    }
  }
  attr {
    key: "value"
    value {
      tensor {
        dtype: DT_INT32
        tensor_shape {
          dim {
            size: 1
          }
        }
        int_val: 3
      }
    }
  }
}
node {
  name: "rnn/BasicLSTMCellZeroState/concat/axis"
  op: "Const"
  attr {
    key: "_output_shapes"
    value {
      list {
        shape {
        }
      }
    }
  }
  attr {
    key: "dtype"
    value {
      type: DT_INT32
    }
  }
  attr {
    key: "value"
    value {
      tensor {
        dtype: DT_INT32
        tensor_shape {
        }
        int_val: 0
      }
    }
  }
}
node {
  name: "rnn/BasicLSTMCellZeroState/concat"
  op: "ConcatV2"
  input: "rnn/BasicLSTMCellZeroState/ExpandDims"
  input: "rnn/BasicLSTMCellZeroState/Const"
  input: "rnn/BasicLSTMCellZeroState/concat/axis"
  attr {
    key: "N"
    value {
      i: 2
    }
  }
  attr {
    key: "T"
    value {
      type: DT_INT32
    }
  }
  attr {
    key: "Tidx"
    value {
      type: DT_INT32
    }
  }
  attr {
    key: "_output_shapes"
    value {
      list {
        shape {
          dim {
            size: 2
          }
        }
      }
    }
  }
}
node {
  name: "rnn/BasicLSTMCellZeroState/ExpandDims_1/dim"
  op: "Const"
  attr {
    key: "_output_shapes"
    value {
      list {
        shape {
        }
      }
    }
  }
  attr {
    key: "dtype"
    value {
      type: DT_INT32
    }
  }
  attr {
    key: "value"
    value {
      tensor {
        dtype: DT_INT32
        tensor_shape {
        }
        int_val: 0
      }
    }
  }
}
node {
  name: "rnn/BasicLSTMCellZeroState/ExpandDims_1"
  op: "ExpandDims"
  input: "rnn/strided_slice"
  input: "rnn/BasicLSTMCellZeroState/ExpandDims_1/dim"
  attr {
    key: "T"
    value {
      type: DT_INT32
    }
  }
  attr {
    key: "Tdim"
    value {
      type: DT_INT32
    }
  }
  attr {
    key: "_output_shapes"
    value {
      list {
        shape {
          dim {
            size: 1
          }
        }
      }
    }
  }
}
node {
  name: "rnn/BasicLSTMCellZeroState/Const_1"
  op: "Const"
  attr {
    key: "_output_shapes"
    value {
      list {
        shape {
          dim {
            size: 1
          }
        }
      }
    }
  }
  attr {
    key: "dtype"
    value {
      type: DT_INT32
    }
  }
  attr {
    key: "value"
    value {
      tensor {
        dtype: DT_INT32
        tensor_shape {
          dim {
            size: 1
          }
        }
        int_val: 3
      }
    }
  }
}
node {
  name: "rnn/BasicLSTMCellZeroState/zeros/Const"
  op: "Const"
  attr {
    key: "_output_shapes"
    value {
      list {
        shape {
        }
      }
    }
  }
  attr {
    key: "dtype"
    value {
      type: DT_FLOAT
    }
  }
  attr {
    key: "value"
    value {
      tensor {
        dtype: DT_FLOAT
        tensor_shape {
        }
        float_val: 0.0
      }
    }
  }
}
node {
  name: "rnn/BasicLSTMCellZeroState/zeros"
  op: "Fill"
  input: "rnn/BasicLSTMCellZeroState/concat"
  input: "rnn/BasicLSTMCellZeroState/zeros/Const"
  attr {
    key: "T"
    value {
      type: DT_FLOAT
    }
  }
  attr {
    key: "_output_shapes"
    value {
      list {
        shape {
          dim {
            size: -1
          }
          dim {
            size: 3
          }
        }
      }
    }
  }
}
node {
  name: "rnn/BasicLSTMCellZeroState/ExpandDims_2/dim"
  op: "Const"
  attr {
    key: "_output_shapes"
    value {
      list {
        shape {
        }
      }
    }
  }
  attr {
    key: "dtype"
    value {
      type: DT_INT32
    }
  }
  attr {
    key: "value"
    value {
      tensor {
        dtype: DT_INT32
        tensor_shape {
        }
        int_val: 0
      }
    }
  }
}
node {
  name: "rnn/BasicLSTMCellZeroState/ExpandDims_2"
  op: "ExpandDims"
  input: "rnn/strided_slice"
  input: "rnn/BasicLSTMCellZeroState/ExpandDims_2/dim"
  attr {
    key: "T"
    value {
      type: DT_INT32
    }
  }
  attr {
    key: "Tdim"
    value {
      type: DT_INT32
    }
  }
  attr {
    key: "_output_shapes"
    value {
      list {
        shape {
          dim {
            size: 1
          }
        }
      }
    }
  }
}
node {
  name: "rnn/BasicLSTMCellZeroState/Const_2"
  op: "Const"
  attr {
    key: "_output_shapes"
    value {
      list {
        shape {
          dim {
            size: 1
          }
        }
      }
    }
  }
  attr {
    key: "dtype"
    value {
      type: DT_INT32
    }
  }
  attr {
    key: "value"
    value {
      tensor {
        dtype: DT_INT32
        tensor_shape {
          dim {
            size: 1
          }
        }
        int_val: 3
      }
    }
  }
}
node {
  name: "rnn/BasicLSTMCellZeroState/concat_1/axis"
  op: "Const"
  attr {
    key: "_output_shapes"
    value {
      list {
        shape {
        }
      }
    }
  }
  attr {
    key: "dtype"
    value {
      type: DT_INT32
    }
  }
  attr {
    key: "value"
    value {
      tensor {
        dtype: DT_INT32
        tensor_shape {
        }
        int_val: 0
      }
    }
  }
}
node {
  name: "rnn/BasicLSTMCellZeroState/concat_1"
  op: "ConcatV2"
  input: "rnn/BasicLSTMCellZeroState/ExpandDims_2"
  input: "rnn/BasicLSTMCellZeroState/Const_2"
  input: "rnn/BasicLSTMCellZeroState/concat_1/axis"
  attr {
    key: "N"
    value {
      i: 2
    }
  }
  attr {
    key: "T"
    value {
      type: DT_INT32
    }
  }
  attr {
    key: "Tidx"
    value {
      type: DT_INT32
    }
  }
  attr {
    key: "_output_shapes"
    value {
      list {
        shape {
          dim {
            size: 2
          }
        }
      }
    }
  }
}
node {
  name: "rnn/BasicLSTMCellZeroState/ExpandDims_3/dim"
  op: "Const"
  attr {
    key: "_output_shapes"
    value {
      list {
        shape {
        }
      }
    }
  }
  attr {
    key: "dtype"
    value {
      type: DT_INT32
    }
  }
  attr {
    key: "value"
    value {
      tensor {
        dtype: DT_INT32
        tensor_shape {
        }
        int_val: 0
      }
    }
  }
}
node {
  name: "rnn/BasicLSTMCellZeroState/ExpandDims_3"
  op: "ExpandDims"
  input: "rnn/strided_slice"
  input: "rnn/BasicLSTMCellZeroState/ExpandDims_3/dim"
  attr {
    key: "T"
    value {
      type: DT_INT32
    }
  }
  attr {
    key: "Tdim"
    value {
      type: DT_INT32
    }
  }
  attr {
    key: "_output_shapes"
    value {
      list {
        shape {
          dim {
            size: 1
          }
        }
      }
    }
  }
}
node {
  name: "rnn/BasicLSTMCellZeroState/Const_3"
  op: "Const"
  attr {
    key: "_output_shapes"
    value {
      list {
        shape {
          dim {
            size: 1
          }
        }
      }
    }
  }
  attr {
    key: "dtype"
    value {
      type: DT_INT32
    }
  }
  attr {
    key: "value"
    value {
      tensor {
        dtype: DT_INT32
        tensor_shape {
          dim {
            size: 1
          }
        }
        int_val: 3
      }
    }
  }
}
node {
  name: "rnn/BasicLSTMCellZeroState/zeros_1/Const"
  op: "Const"
  attr {
    key: "_output_shapes"
    value {
      list {
        shape {
        }
      }
    }
  }
  attr {
    key: "dtype"
    value {
      type: DT_FLOAT
    }
  }
  attr {
    key: "value"
    value {
      tensor {
        dtype: DT_FLOAT
        tensor_shape {
        }
        float_val: 0.0
      }
    }
  }
}
node {
  name: "rnn/BasicLSTMCellZeroState/zeros_1"
  op: "Fill"
  input: "rnn/BasicLSTMCellZeroState/concat_1"
  input: "rnn/BasicLSTMCellZeroState/zeros_1/Const"
  attr {
    key: "T"
    value {
      type: DT_FLOAT
    }
  }
  attr {
    key: "_output_shapes"
    value {
      list {
        shape {
          dim {
            size: -1
          }
          dim {
            size: 3
          }
        }
      }
    }
  }
}
node {
  name: "rnn/basic_lstm_cell/kernel/Initializer/random_uniform/shape"
  op: "Const"
  attr {
    key: "_class"
    value {
      list {
        s: "loc:@rnn/basic_lstm_cell/kernel"
      }
    }
  }
  attr {
    key: "_output_shapes"
    value {
      list {
        shape {
          dim {
            size: 2
          }
        }
      }
    }
  }
  attr {
    key: "dtype"
    value {
      type: DT_INT32
    }
  }
  attr {
    key: "value"
    value {
      tensor {
        dtype: DT_INT32
        tensor_shape {
          dim {
            size: 2
          }
        }
        tensor_content: "\004\000\000\000\014\000\000\000"
      }
    }
  }
}
node {
  name: "rnn/basic_lstm_cell/kernel/Initializer/random_uniform/min"
  op: "Const"
  attr {
    key: "_class"
    value {
      list {
        s: "loc:@rnn/basic_lstm_cell/kernel"
      }
    }
  }
  attr {
    key: "_output_shapes"
    value {
      list {
        shape {
        }
      }
    }
  }
  attr {
    key: "dtype"
    value {
      type: DT_FLOAT
    }
  }
  attr {
    key: "value"
    value {
      tensor {
        dtype: DT_FLOAT
        tensor_shape {
        }
        float_val: -0.6123724579811096
      }
    }
  }
}
node {
  name: "rnn/basic_lstm_cell/kernel/Initializer/random_uniform/max"
  op: "Const"
  attr {
    key: "_class"
    value {
      list {
        s: "loc:@rnn/basic_lstm_cell/kernel"
      }
    }
  }
  attr {
    key: "_output_shapes"
    value {
      list {
        shape {
        }
      }
    }
  }
  attr {
    key: "dtype"
    value {
      type: DT_FLOAT
    }
  }
  attr {
    key: "value"
    value {
      tensor {
        dtype: DT_FLOAT
        tensor_shape {
        }
        float_val: 0.6123724579811096
      }
    }
  }
}
node {
  name: "rnn/basic_lstm_cell/kernel/Initializer/random_uniform/RandomUniform"
  op: "RandomUniform"
  input: "rnn/basic_lstm_cell/kernel/Initializer/random_uniform/shape"
  attr {
    key: "T"
    value {
      type: DT_INT32
    }
  }
  attr {
    key: "_class"
    value {
      list {
        s: "loc:@rnn/basic_lstm_cell/kernel"
      }
    }
  }
  attr {
    key: "_output_shapes"
    value {
      list {
        shape {
          dim {
            size: 4
          }
          dim {
            size: 12
          }
        }
      }
    }
  }
  attr {
    key: "dtype"
    value {
      type: DT_FLOAT
    }
  }
  attr {
    key: "seed"
    value {
      i: 0
    }
  }
  attr {
    key: "seed2"
    value {
      i: 0
    }
  }
}
node {
  name: "rnn/basic_lstm_cell/kernel/Initializer/random_uniform/sub"
  op: "Sub"
  input: "rnn/basic_lstm_cell/kernel/Initializer/random_uniform/max"
  input: "rnn/basic_lstm_cell/kernel/Initializer/random_uniform/min"
  attr {
    key: "T"
    value {
      type: DT_FLOAT
    }
  }
  attr {
    key: "_class"
    value {
      list {
        s: "loc:@rnn/basic_lstm_cell/kernel"
      }
    }
  }
  attr {
    key: "_output_shapes"
    value {
      list {
        shape {
        }
      }
    }
  }
}
node {
  name: "rnn/basic_lstm_cell/kernel/Initializer/random_uniform/mul"
  op: "Mul"
  input: "rnn/basic_lstm_cell/kernel/Initializer/random_uniform/RandomUniform"
  input: "rnn/basic_lstm_cell/kernel/Initializer/random_uniform/sub"
  attr {
    key: "T"
    value {
      type: DT_FLOAT
    }
  }
  attr {
    key: "_class"
    value {
      list {
        s: "loc:@rnn/basic_lstm_cell/kernel"
      }
    }
  }
  attr {
    key: "_output_shapes"
    value {
      list {
        shape {
          dim {
            size: 4
          }
          dim {
            size: 12
          }
        }
      }
    }
  }
}
node {
  name: "rnn/basic_lstm_cell/kernel/Initializer/random_uniform"
  op: "Add"
  input: "rnn/basic_lstm_cell/kernel/Initializer/random_uniform/mul"
  input: "rnn/basic_lstm_cell/kernel/Initializer/random_uniform/min"
  attr {
    key: "T"
    value {
      type: DT_FLOAT
    }
  }
  attr {
    key: "_class"
    value {
      list {
        s: "loc:@rnn/basic_lstm_cell/kernel"
      }
    }
  }
  attr {
    key: "_output_shapes"
    value {
      list {
        shape {
          dim {
            size: 4
          }
          dim {
            size: 12
          }
        }
      }
    }
  }
}
node {
  name: "rnn/basic_lstm_cell/kernel"
  op: "VariableV2"
  attr {
    key: "_class"
    value {
      list {
        s: "loc:@rnn/basic_lstm_cell/kernel"
      }
    }
  }
  attr {
    key: "_output_shapes"
    value {
      list {
        shape {
          dim {
            size: 4
          }
          dim {
            size: 12
          }
        }
      }
    }
  }
  attr {
    key: "container"
    value {
      s: ""
    }
  }
  attr {
    key: "dtype"
    value {
      type: DT_FLOAT
    }
  }
  attr {
    key: "shape"
    value {
      shape {
        dim {
          size: 4
        }
        dim {
          size: 12
        }
      }
    }
  }
  attr {
    key: "shared_name"
    value {
      s: ""
    }
  }
}
node {
  name: "rnn/basic_lstm_cell/kernel/Assign"
  op: "Assign"
  input: "rnn/basic_lstm_cell/kernel"
  input: "rnn/basic_lstm_cell/kernel/Initializer/random_uniform"
  attr {
    key: "T"
    value {
      type: DT_FLOAT
    }
  }
  attr {
    key: "_class"
    value {
      list {
        s: "loc:@rnn/basic_lstm_cell/kernel"
      }
    }
  }
  attr {
    key: "_output_shapes"
    value {
      list {
        shape {
          dim {
            size: 4
          }
          dim {
            size: 12
          }
        }
      }
    }
  }
  attr {
    key: "use_locking"
    value {
      b: true
    }
  }
  attr {
    key: "validate_shape"
    value {
      b: true
    }
  }
}
node {
  name: "rnn/basic_lstm_cell/kernel/read"
  op: "Identity"
  input: "rnn/basic_lstm_cell/kernel"
  attr {
    key: "T"
    value {
      type: DT_FLOAT
    }
  }
  attr {
    key: "_output_shapes"
    value {
      list {
        shape {
          dim {
            size: 4
          }
          dim {
            size: 12
          }
        }
      }
    }
  }
}
node {
  name: "rnn/rnn/basic_lstm_cell/basic_lstm_cell/concat/axis"
  op: "Const"
  attr {
    key: "_output_shapes"
    value {
      list {
        shape {
        }
      }
    }
  }
  attr {
    key: "dtype"
    value {
      type: DT_INT32
    }
  }
  attr {
    key: "value"
    value {
      tensor {
        dtype: DT_INT32
        tensor_shape {
        }
        int_val: 1
      }
    }
  }
}
node {
  name: "rnn/rnn/basic_lstm_cell/basic_lstm_cell/concat"
  op: "ConcatV2"
  input: "split"
  input: "rnn/BasicLSTMCellZeroState/zeros_1"
  input: "rnn/rnn/basic_lstm_cell/basic_lstm_cell/concat/axis"
  attr {
    key: "N"
    value {
      i: 2
    }
  }
  attr {
    key: "T"
    value {
      type: DT_FLOAT
    }
  }
  attr {
    key: "Tidx"
    value {
      type: DT_INT32
    }
  }
  attr {
    key: "_output_shapes"
    value {
      list {
        shape {
          dim {
            size: -1
          }
          dim {
            size: 4
          }
        }
      }
    }
  }
}
node {
  name: "rnn/rnn/basic_lstm_cell/basic_lstm_cell/MatMul"
  op: "MatMul"
  input: "rnn/rnn/basic_lstm_cell/basic_lstm_cell/concat"
  input: "rnn/basic_lstm_cell/kernel/read"
  attr {
    key: "T"
    value {
      type: DT_FLOAT
    }
  }
  attr {
    key: "_output_shapes"
    value {
      list {
        shape {
          dim {
            size: -1
          }
          dim {
            size: 12
          }
        }
      }
    }
  }
  attr {
    key: "transpose_a"
    value {
      b: false
    }
  }
  attr {
    key: "transpose_b"
    value {
      b: false
    }
  }
}
node {
  name: "rnn/basic_lstm_cell/bias/Initializer/Const"
  op: "Const"
  attr {
    key: "_class"
    value {
      list {
        s: "loc:@rnn/basic_lstm_cell/bias"
      }
    }
  }
  attr {
    key: "_output_shapes"
    value {
      list {
        shape {
          dim {
            size: 12
          }
        }
      }
    }
  }
  attr {
    key: "dtype"
    value {
      type: DT_FLOAT
    }
  }
  attr {
    key: "value"
    value {
      tensor {
        dtype: DT_FLOAT
        tensor_shape {
          dim {
            size: 12
          }
        }
        float_val: 0.0
      }
    }
  }
}
node {
  name: "rnn/basic_lstm_cell/bias"
  op: "VariableV2"
  attr {
    key: "_class"
    value {
      list {
        s: "loc:@rnn/basic_lstm_cell/bias"
      }
    }
  }
  attr {
    key: "_output_shapes"
    value {
      list {
        shape {
          dim {
            size: 12
          }
        }
      }
    }
  }
  attr {
    key: "container"
    value {
      s: ""
    }
  }
  attr {
    key: "dtype"
    value {
      type: DT_FLOAT
    }
  }
  attr {
    key: "shape"
    value {
      shape {
        dim {
          size: 12
        }
      }
    }
  }
  attr {
    key: "shared_name"
    value {
      s: ""
    }
  }
}
node {
  name: "rnn/basic_lstm_cell/bias/Assign"
  op: "Assign"
  input: "rnn/basic_lstm_cell/bias"
  input: "rnn/basic_lstm_cell/bias/Initializer/Const"
  attr {
    key: "T"
    value {
      type: DT_FLOAT
    }
  }
  attr {
    key: "_class"
    value {
      list {
        s: "loc:@rnn/basic_lstm_cell/bias"
      }
    }
  }
  attr {
    key: "_output_shapes"
    value {
      list {
        shape {
          dim {
            size: 12
          }
        }
      }
    }
  }
  attr {
    key: "use_locking"
    value {
      b: true
    }
  }
  attr {
    key: "validate_shape"
    value {
      b: true
    }
  }
}
node {
  name: "rnn/basic_lstm_cell/bias/read"
  op: "Identity"
  input: "rnn/basic_lstm_cell/bias"
  attr {
    key: "T"
    value {
      type: DT_FLOAT
    }
  }
  attr {
    key: "_output_shapes"
    value {
      list {
        shape {
          dim {
            size: 12
          }
        }
      }
    }
  }
}
node {
  name: "rnn/rnn/basic_lstm_cell/basic_lstm_cell/BiasAdd"
  op: "BiasAdd"
  input: "rnn/rnn/basic_lstm_cell/basic_lstm_cell/MatMul"
  input: "rnn/basic_lstm_cell/bias/read"
  attr {
    key: "T"
    value {
      type: DT_FLOAT
    }
  }
  attr {
    key: "_output_shapes"
    value {
      list {
        shape {
          dim {
            size: -1
          }
          dim {
            size: 12
          }
        }
      }
    }
  }
  attr {
    key: "data_format"
    value {
      s: "NHWC"
    }
  }
}
node {
  name: "rnn/rnn/basic_lstm_cell/Const"
  op: "Const"
  attr {
    key: "_output_shapes"
    value {
      list {
        shape {
        }
      }
    }
  }
  attr {
    key: "dtype"
    value {
      type: DT_INT32
    }
  }
  attr {
    key: "value"
    value {
      tensor {
        dtype: DT_INT32
        tensor_shape {
        }
        int_val: 4
      }
    }
  }
}
node {
  name: "rnn/rnn/basic_lstm_cell/split/split_dim"
  op: "Const"
  attr {
    key: "_output_shapes"
    value {
      list {
        shape {
        }
      }
    }
  }
  attr {
    key: "dtype"
    value {
      type: DT_INT32
    }
  }
  attr {
    key: "value"
    value {
      tensor {
        dtype: DT_INT32
        tensor_shape {
        }
        int_val: 1
      }
    }
  }
}
node {
  name: "rnn/rnn/basic_lstm_cell/split"
  op: "Split"
  input: "rnn/rnn/basic_lstm_cell/split/split_dim"
  input: "rnn/rnn/basic_lstm_cell/basic_lstm_cell/BiasAdd"
  attr {
    key: "T"
    value {
      type: DT_FLOAT
    }
  }
  attr {
    key: "_output_shapes"
    value {
      list {
        shape {
          dim {
            size: -1
          }
          dim {
            size: 3
          }
        }
        shape {
          dim {
            size: -1
          }
          dim {
            size: 3
          }
        }
        shape {
          dim {
            size: -1
          }
          dim {
            size: 3
          }
        }
        shape {
          dim {
            size: -1
          }
          dim {
            size: 3
          }
        }
      }
    }
  }
  attr {
    key: "num_split"
    value {
      i: 4
    }
  }
}
node {
  name: "rnn/rnn/basic_lstm_cell/add/y"
  op: "Const"
  attr {
    key: "_output_shapes"
    value {
      list {
        shape {
        }
      }
    }
  }
  attr {
    key: "dtype"
    value {
      type: DT_FLOAT
    }
  }
  attr {
    key: "value"
    value {
      tensor {
        dtype: DT_FLOAT
        tensor_shape {
        }
        float_val: 1.0
      }
    }
  }
}
node {
  name: "rnn/rnn/basic_lstm_cell/add"
  op: "Add"
  input: "rnn/rnn/basic_lstm_cell/split:2"
  input: "rnn/rnn/basic_lstm_cell/add/y"
  attr {
    key: "T"
    value {
      type: DT_FLOAT
    }
  }
  attr {
    key: "_output_shapes"
    value {
      list {
        shape {
          dim {
            size: -1
          }
          dim {
            size: 3
          }
        }
      }
    }
  }
}
node {
  name: "rnn/rnn/basic_lstm_cell/Sigmoid"
  op: "Sigmoid"
  input: "rnn/rnn/basic_lstm_cell/add"
  attr {
    key: "T"
    value {
      type: DT_FLOAT
    }
  }
  attr {
    key: "_output_shapes"
    value {
      list {
        shape {
          dim {
            size: -1
          }
          dim {
            size: 3
          }
        }
      }
    }
  }
}
node {
  name: "rnn/rnn/basic_lstm_cell/mul"
  op: "Mul"
  input: "rnn/BasicLSTMCellZeroState/zeros"
  input: "rnn/rnn/basic_lstm_cell/Sigmoid"
  attr {
    key: "T"
    value {
      type: DT_FLOAT
    }
  }
  attr {
    key: "_output_shapes"
    value {
      list {
        shape {
          dim {
            size: -1
          }
          dim {
            size: 3
          }
        }
      }
    }
  }
}
node {
  name: "rnn/rnn/basic_lstm_cell/Sigmoid_1"
  op: "Sigmoid"
  input: "rnn/rnn/basic_lstm_cell/split"
  attr {
    key: "T"
    value {
      type: DT_FLOAT
    }
  }
  attr {
    key: "_output_shapes"
    value {
      list {
        shape {
          dim {
            size: -1
          }
          dim {
            size: 3
          }
        }
      }
    }
  }
}
node {
  name: "rnn/rnn/basic_lstm_cell/Tanh"
  op: "Tanh"
  input: "rnn/rnn/basic_lstm_cell/split:1"
  attr {
    key: "T"
    value {
      type: DT_FLOAT
    }
  }
  attr {
    key: "_output_shapes"
    value {
      list {
        shape {
          dim {
            size: -1
          }
          dim {
            size: 3
          }
        }
      }
    }
  }
}
node {
  name: "rnn/rnn/basic_lstm_cell/mul_1"
  op: "Mul"
  input: "rnn/rnn/basic_lstm_cell/Sigmoid_1"
  input: "rnn/rnn/basic_lstm_cell/Tanh"
  attr {
    key: "T"
    value {
      type: DT_FLOAT
    }
  }
  attr {
    key: "_output_shapes"
    value {
      list {
        shape {
          dim {
            size: -1
          }
          dim {
            size: 3
          }
        }
      }
    }
  }
}
node {
  name: "rnn/rnn/basic_lstm_cell/add_1"
  op: "Add"
  input: "rnn/rnn/basic_lstm_cell/mul"
  input: "rnn/rnn/basic_lstm_cell/mul_1"
  attr {
    key: "T"
    value {
      type: DT_FLOAT
    }
  }
  attr {
    key: "_output_shapes"
    value {
      list {
        shape {
          dim {
            size: -1
          }
          dim {
            size: 3
          }
        }
      }
    }
  }
}
node {
  name: "rnn/rnn/basic_lstm_cell/Tanh_1"
  op: "Tanh"
  input: "rnn/rnn/basic_lstm_cell/add_1"
  attr {
    key: "T"
    value {
      type: DT_FLOAT
    }
  }
  attr {
    key: "_output_shapes"
    value {
      list {
        shape {
          dim {
            size: -1
          }
          dim {
            size: 3
          }
        }
      }
    }
  }
}
node {
  name: "rnn/rnn/basic_lstm_cell/Sigmoid_2"
  op: "Sigmoid"
  input: "rnn/rnn/basic_lstm_cell/split:3"
  attr {
    key: "T"
    value {
      type: DT_FLOAT
    }
  }
  attr {
    key: "_output_shapes"
    value {
      list {
        shape {
          dim {
            size: -1
          }
          dim {
            size: 3
          }
        }
      }
    }
  }
}
node {
  name: "rnn/rnn/basic_lstm_cell/mul_2"
  op: "Mul"
  input: "rnn/rnn/basic_lstm_cell/Tanh_1"
  input: "rnn/rnn/basic_lstm_cell/Sigmoid_2"
  attr {
    key: "T"
    value {
      type: DT_FLOAT
    }
  }
  attr {
    key: "_output_shapes"
    value {
      list {
        shape {
          dim {
            size: -1
          }
          dim {
            size: 3
          }
        }
      }
    }
  }
}
node {
  name: "rnn/rnn/basic_lstm_cell/basic_lstm_cell_1/concat/axis"
  op: "Const"
  attr {
    key: "_output_shapes"
    value {
      list {
        shape {
        }
      }
    }
  }
  attr {
    key: "dtype"
    value {
      type: DT_INT32
    }
  }
  attr {
    key: "value"
    value {
      tensor {
        dtype: DT_INT32
        tensor_shape {
        }
        int_val: 1
      }
    }
  }
}
node {
  name: "rnn/rnn/basic_lstm_cell/basic_lstm_cell_1/concat"
  op: "ConcatV2"
  input: "split:1"
  input: "rnn/rnn/basic_lstm_cell/mul_2"
  input: "rnn/rnn/basic_lstm_cell/basic_lstm_cell_1/concat/axis"
  attr {
    key: "N"
    value {
      i: 2
    }
  }
  attr {
    key: "T"
    value {
      type: DT_FLOAT
    }
  }
  attr {
    key: "Tidx"
    value {
      type: DT_INT32
    }
  }
  attr {
    key: "_output_shapes"
    value {
      list {
        shape {
          dim {
            size: -1
          }
          dim {
            size: 4
          }
        }
      }
    }
  }
}
node {
  name: "rnn/rnn/basic_lstm_cell/basic_lstm_cell_1/MatMul"
  op: "MatMul"
  input: "rnn/rnn/basic_lstm_cell/basic_lstm_cell_1/concat"
  input: "rnn/basic_lstm_cell/kernel/read"
  attr {
    key: "T"
    value {
      type: DT_FLOAT
    }
  }
  attr {
    key: "_output_shapes"
    value {
      list {
        shape {
          dim {
            size: -1
          }
          dim {
            size: 12
          }
        }
      }
    }
  }
  attr {
    key: "transpose_a"
    value {
      b: false
    }
  }
  attr {
    key: "transpose_b"
    value {
      b: false
    }
  }
}
node {
  name: "rnn/rnn/basic_lstm_cell/basic_lstm_cell_1/BiasAdd"
  op: "BiasAdd"
  input: "rnn/rnn/basic_lstm_cell/basic_lstm_cell_1/MatMul"
  input: "rnn/basic_lstm_cell/bias/read"
  attr {
    key: "T"
    value {
      type: DT_FLOAT
    }
  }
  attr {
    key: "_output_shapes"
    value {
      list {
        shape {
          dim {
            size: -1
          }
          dim {
            size: 12
          }
        }
      }
    }
  }
  attr {
    key: "data_format"
    value {
      s: "NHWC"
    }
  }
}
node {
  name: "rnn/rnn/basic_lstm_cell/Const_1"
  op: "Const"
  attr {
    key: "_output_shapes"
    value {
      list {
        shape {
        }
      }
    }
  }
  attr {
    key: "dtype"
    value {
      type: DT_INT32
    }
  }
  attr {
    key: "value"
    value {
      tensor {
        dtype: DT_INT32
        tensor_shape {
        }
        int_val: 4
      }
    }
  }
}
node {
  name: "rnn/rnn/basic_lstm_cell/split_1/split_dim"
  op: "Const"
  attr {
    key: "_output_shapes"
    value {
      list {
        shape {
        }
      }
    }
  }
  attr {
    key: "dtype"
    value {
      type: DT_INT32
    }
  }
  attr {
    key: "value"
    value {
      tensor {
        dtype: DT_INT32
        tensor_shape {
        }
        int_val: 1
      }
    }
  }
}
node {
  name: "rnn/rnn/basic_lstm_cell/split_1"
  op: "Split"
  input: "rnn/rnn/basic_lstm_cell/split_1/split_dim"
  input: "rnn/rnn/basic_lstm_cell/basic_lstm_cell_1/BiasAdd"
  attr {
    key: "T"
    value {
      type: DT_FLOAT
    }
  }
  attr {
    key: "_output_shapes"
    value {
      list {
        shape {
          dim {
            size: -1
          }
          dim {
            size: 3
          }
        }
        shape {
          dim {
            size: -1
          }
          dim {
            size: 3
          }
        }
        shape {
          dim {
            size: -1
          }
          dim {
            size: 3
          }
        }
        shape {
          dim {
            size: -1
          }
          dim {
            size: 3
          }
        }
      }
    }
  }
  attr {
    key: "num_split"
    value {
      i: 4
    }
  }
}
node {
  name: "rnn/rnn/basic_lstm_cell/add_2/y"
  op: "Const"
  attr {
    key: "_output_shapes"
    value {
      list {
        shape {
        }
      }
    }
  }
  attr {
    key: "dtype"
    value {
      type: DT_FLOAT
    }
  }
  attr {
    key: "value"
    value {
      tensor {
        dtype: DT_FLOAT
        tensor_shape {
        }
        float_val: 1.0
      }
    }
  }
}
node {
  name: "rnn/rnn/basic_lstm_cell/add_2"
  op: "Add"
  input: "rnn/rnn/basic_lstm_cell/split_1:2"
  input: "rnn/rnn/basic_lstm_cell/add_2/y"
  attr {
    key: "T"
    value {
      type: DT_FLOAT
    }
  }
  attr {
    key: "_output_shapes"
    value {
      list {
        shape {
          dim {
            size: -1
          }
          dim {
            size: 3
          }
        }
      }
    }
  }
}
node {
  name: "rnn/rnn/basic_lstm_cell/Sigmoid_3"
  op: "Sigmoid"
  input: "rnn/rnn/basic_lstm_cell/add_2"
  attr {
    key: "T"
    value {
      type: DT_FLOAT
    }
  }
  attr {
    key: "_output_shapes"
    value {
      list {
        shape {
          dim {
            size: -1
          }
          dim {
            size: 3
          }
        }
      }
    }
  }
}
node {
  name: "rnn/rnn/basic_lstm_cell/mul_3"
  op: "Mul"
  input: "rnn/rnn/basic_lstm_cell/add_1"
  input: "rnn/rnn/basic_lstm_cell/Sigmoid_3"
  attr {
    key: "T"
    value {
      type: DT_FLOAT
    }
  }
  attr {
    key: "_output_shapes"
    value {
      list {
        shape {
          dim {
            size: -1
          }
          dim {
            size: 3
          }
        }
      }
    }
  }
}
node {
  name: "rnn/rnn/basic_lstm_cell/Sigmoid_4"
  op: "Sigmoid"
  input: "rnn/rnn/basic_lstm_cell/split_1"
  attr {
    key: "T"
    value {
      type: DT_FLOAT
    }
  }
  attr {
    key: "_output_shapes"
    value {
      list {
        shape {
          dim {
            size: -1
          }
          dim {
            size: 3
          }
        }
      }
    }
  }
}
node {
  name: "rnn/rnn/basic_lstm_cell/Tanh_2"
  op: "Tanh"
  input: "rnn/rnn/basic_lstm_cell/split_1:1"
  attr {
    key: "T"
    value {
      type: DT_FLOAT
    }
  }
  attr {
    key: "_output_shapes"
    value {
      list {
        shape {
          dim {
            size: -1
          }
          dim {
            size: 3
          }
        }
      }
    }
  }
}
node {
  name: "rnn/rnn/basic_lstm_cell/mul_4"
  op: "Mul"
  input: "rnn/rnn/basic_lstm_cell/Sigmoid_4"
  input: "rnn/rnn/basic_lstm_cell/Tanh_2"
  attr {
    key: "T"
    value {
      type: DT_FLOAT
    }
  }
  attr {
    key: "_output_shapes"
    value {
      list {
        shape {
          dim {
            size: -1
          }
          dim {
            size: 3
          }
        }
      }
    }
  }
}
node {
  name: "rnn/rnn/basic_lstm_cell/add_3"
  op: "Add"
  input: "rnn/rnn/basic_lstm_cell/mul_3"
  input: "rnn/rnn/basic_lstm_cell/mul_4"
  attr {
    key: "T"
    value {
      type: DT_FLOAT
    }
  }
  attr {
    key: "_output_shapes"
    value {
      list {
        shape {
          dim {
            size: -1
          }
          dim {
            size: 3
          }
        }
      }
    }
  }
}
node {
  name: "rnn/rnn/basic_lstm_cell/Tanh_3"
  op: "Tanh"
  input: "rnn/rnn/basic_lstm_cell/add_3"
  attr {
    key: "T"
    value {
      type: DT_FLOAT
    }
  }
  attr {
    key: "_output_shapes"
    value {
      list {
        shape {
          dim {
            size: -1
          }
          dim {
            size: 3
          }
        }
      }
    }
  }
}
node {
  name: "rnn/rnn/basic_lstm_cell/Sigmoid_5"
  op: "Sigmoid"
  input: "rnn/rnn/basic_lstm_cell/split_1:3"
  attr {
    key: "T"
    value {
      type: DT_FLOAT
    }
  }
  attr {
    key: "_output_shapes"
    value {
      list {
        shape {
          dim {
            size: -1
          }
          dim {
            size: 3
          }
        }
      }
    }
  }
}
node {
  name: "rnn/rnn/basic_lstm_cell/mul_5"
  op: "Mul"
  input: "rnn/rnn/basic_lstm_cell/Tanh_3"
  input: "rnn/rnn/basic_lstm_cell/Sigmoid_5"
  attr {
    key: "T"
    value {
      type: DT_FLOAT
    }
  }
  attr {
    key: "_output_shapes"
    value {
      list {
        shape {
          dim {
            size: -1
          }
          dim {
            size: 3
          }
        }
      }
    }
  }
}
node {
  name: "rnn/rnn/basic_lstm_cell/basic_lstm_cell_2/concat/axis"
  op: "Const"
  attr {
    key: "_output_shapes"
    value {
      list {
        shape {
        }
      }
    }
  }
  attr {
    key: "dtype"
    value {
      type: DT_INT32
    }
  }
  attr {
    key: "value"
    value {
      tensor {
        dtype: DT_INT32
        tensor_shape {
        }
        int_val: 1
      }
    }
  }
}
node {
  name: "rnn/rnn/basic_lstm_cell/basic_lstm_cell_2/concat"
  op: "ConcatV2"
  input: "split:2"
  input: "rnn/rnn/basic_lstm_cell/mul_5"
  input: "rnn/rnn/basic_lstm_cell/basic_lstm_cell_2/concat/axis"
  attr {
    key: "N"
    value {
      i: 2
    }
  }
  attr {
    key: "T"
    value {
      type: DT_FLOAT
    }
  }
  attr {
    key: "Tidx"
    value {
      type: DT_INT32
    }
  }
  attr {
    key: "_output_shapes"
    value {
      list {
        shape {
          dim {
            size: -1
          }
          dim {
            size: 4
          }
        }
      }
    }
  }
}
node {
  name: "rnn/rnn/basic_lstm_cell/basic_lstm_cell_2/MatMul"
  op: "MatMul"
  input: "rnn/rnn/basic_lstm_cell/basic_lstm_cell_2/concat"
  input: "rnn/basic_lstm_cell/kernel/read"
  attr {
    key: "T"
    value {
      type: DT_FLOAT
    }
  }
  attr {
    key: "_output_shapes"
    value {
      list {
        shape {
          dim {
            size: -1
          }
          dim {
            size: 12
          }
        }
      }
    }
  }
  attr {
    key: "transpose_a"
    value {
      b: false
    }
  }
  attr {
    key: "transpose_b"
    value {
      b: false
    }
  }
}
node {
  name: "rnn/rnn/basic_lstm_cell/basic_lstm_cell_2/BiasAdd"
  op: "BiasAdd"
  input: "rnn/rnn/basic_lstm_cell/basic_lstm_cell_2/MatMul"
  input: "rnn/basic_lstm_cell/bias/read"
  attr {
    key: "T"
    value {
      type: DT_FLOAT
    }
  }
  attr {
    key: "_output_shapes"
    value {
      list {
        shape {
          dim {
            size: -1
          }
          dim {
            size: 12
          }
        }
      }
    }
  }
  attr {
    key: "data_format"
    value {
      s: "NHWC"
    }
  }
}
node {
  name: "rnn/rnn/basic_lstm_cell/Const_2"
  op: "Const"
  attr {
    key: "_output_shapes"
    value {
      list {
        shape {
        }
      }
    }
  }
  attr {
    key: "dtype"
    value {
      type: DT_INT32
    }
  }
  attr {
    key: "value"
    value {
      tensor {
        dtype: DT_INT32
        tensor_shape {
        }
        int_val: 4
      }
    }
  }
}
node {
  name: "rnn/rnn/basic_lstm_cell/split_2/split_dim"
  op: "Const"
  attr {
    key: "_output_shapes"
    value {
      list {
        shape {
        }
      }
    }
  }
  attr {
    key: "dtype"
    value {
      type: DT_INT32
    }
  }
  attr {
    key: "value"
    value {
      tensor {
        dtype: DT_INT32
        tensor_shape {
        }
        int_val: 1
      }
    }
  }
}
node {
  name: "rnn/rnn/basic_lstm_cell/split_2"
  op: "Split"
  input: "rnn/rnn/basic_lstm_cell/split_2/split_dim"
  input: "rnn/rnn/basic_lstm_cell/basic_lstm_cell_2/BiasAdd"
  attr {
    key: "T"
    value {
      type: DT_FLOAT
    }
  }
  attr {
    key: "_output_shapes"
    value {
      list {
        shape {
          dim {
            size: -1
          }
          dim {
            size: 3
          }
        }
        shape {
          dim {
            size: -1
          }
          dim {
            size: 3
          }
        }
        shape {
          dim {
            size: -1
          }
          dim {
            size: 3
          }
        }
        shape {
          dim {
            size: -1
          }
          dim {
            size: 3
          }
        }
      }
    }
  }
  attr {
    key: "num_split"
    value {
      i: 4
    }
  }
}
node {
  name: "rnn/rnn/basic_lstm_cell/add_4/y"
  op: "Const"
  attr {
    key: "_output_shapes"
    value {
      list {
        shape {
        }
      }
    }
  }
  attr {
    key: "dtype"
    value {
      type: DT_FLOAT
    }
  }
  attr {
    key: "value"
    value {
      tensor {
        dtype: DT_FLOAT
        tensor_shape {
        }
        float_val: 1.0
      }
    }
  }
}
node {
  name: "rnn/rnn/basic_lstm_cell/add_4"
  op: "Add"
  input: "rnn/rnn/basic_lstm_cell/split_2:2"
  input: "rnn/rnn/basic_lstm_cell/add_4/y"
  attr {
    key: "T"
    value {
      type: DT_FLOAT
    }
  }
  attr {
    key: "_output_shapes"
    value {
      list {
        shape {
          dim {
            size: -1
          }
          dim {
            size: 3
          }
        }
      }
    }
  }
}
node {
  name: "rnn/rnn/basic_lstm_cell/Sigmoid_6"
  op: "Sigmoid"
  input: "rnn/rnn/basic_lstm_cell/add_4"
  attr {
    key: "T"
    value {
      type: DT_FLOAT
    }
  }
  attr {
    key: "_output_shapes"
    value {
      list {
        shape {
          dim {
            size: -1
          }
          dim {
            size: 3
          }
        }
      }
    }
  }
}
node {
  name: "rnn/rnn/basic_lstm_cell/mul_6"
  op: "Mul"
  input: "rnn/rnn/basic_lstm_cell/add_3"
  input: "rnn/rnn/basic_lstm_cell/Sigmoid_6"
  attr {
    key: "T"
    value {
      type: DT_FLOAT
    }
  }
  attr {
    key: "_output_shapes"
    value {
      list {
        shape {
          dim {
            size: -1
          }
          dim {
            size: 3
          }
        }
      }
    }
  }
}
node {
  name: "rnn/rnn/basic_lstm_cell/Sigmoid_7"
  op: "Sigmoid"
  input: "rnn/rnn/basic_lstm_cell/split_2"
  attr {
    key: "T"
    value {
      type: DT_FLOAT
    }
  }
  attr {
    key: "_output_shapes"
    value {
      list {
        shape {
          dim {
            size: -1
          }
          dim {
            size: 3
          }
        }
      }
    }
  }
}
node {
  name: "rnn/rnn/basic_lstm_cell/Tanh_4"
  op: "Tanh"
  input: "rnn/rnn/basic_lstm_cell/split_2:1"
  attr {
    key: "T"
    value {
      type: DT_FLOAT
    }
  }
  attr {
    key: "_output_shapes"
    value {
      list {
        shape {
          dim {
            size: -1
          }
          dim {
            size: 3
          }
        }
      }
    }
  }
}
node {
  name: "rnn/rnn/basic_lstm_cell/mul_7"
  op: "Mul"
  input: "rnn/rnn/basic_lstm_cell/Sigmoid_7"
  input: "rnn/rnn/basic_lstm_cell/Tanh_4"
  attr {
    key: "T"
    value {
      type: DT_FLOAT
    }
  }
  attr {
    key: "_output_shapes"
    value {
      list {
        shape {
          dim {
            size: -1
          }
          dim {
            size: 3
          }
        }
      }
    }
  }
}
node {
  name: "rnn/rnn/basic_lstm_cell/add_5"
  op: "Add"
  input: "rnn/rnn/basic_lstm_cell/mul_6"
  input: "rnn/rnn/basic_lstm_cell/mul_7"
  attr {
    key: "T"
    value {
      type: DT_FLOAT
    }
  }
  attr {
    key: "_output_shapes"
    value {
      list {
        shape {
          dim {
            size: -1
          }
          dim {
            size: 3
          }
        }
      }
    }
  }
}
node {
  name: "rnn/rnn/basic_lstm_cell/Tanh_5"
  op: "Tanh"
  input: "rnn/rnn/basic_lstm_cell/add_5"
  attr {
    key: "T"
    value {
      type: DT_FLOAT
    }
  }
  attr {
    key: "_output_shapes"
    value {
      list {
        shape {
          dim {
            size: -1
          }
          dim {
            size: 3
          }
        }
      }
    }
  }
}
node {
  name: "rnn/rnn/basic_lstm_cell/Sigmoid_8"
  op: "Sigmoid"
  input: "rnn/rnn/basic_lstm_cell/split_2:3"
  attr {
    key: "T"
    value {
      type: DT_FLOAT
    }
  }
  attr {
    key: "_output_shapes"
    value {
      list {
        shape {
          dim {
            size: -1
          }
          dim {
            size: 3
          }
        }
      }
    }
  }
}
node {
  name: "rnn/rnn/basic_lstm_cell/mul_8"
  op: "Mul"
  input: "rnn/rnn/basic_lstm_cell/Tanh_5"
  input: "rnn/rnn/basic_lstm_cell/Sigmoid_8"
  attr {
    key: "T"
    value {
      type: DT_FLOAT
    }
  }
  attr {
    key: "_output_shapes"
    value {
      list {
        shape {
          dim {
            size: -1
          }
          dim {
            size: 3
          }
        }
      }
    }
  }
}
node {
  name: "rnn/rnn/basic_lstm_cell/basic_lstm_cell_3/concat/axis"
  op: "Const"
  attr {
    key: "_output_shapes"
    value {
      list {
        shape {
        }
      }
    }
  }
  attr {
    key: "dtype"
    value {
      type: DT_INT32
    }
  }
  attr {
    key: "value"
    value {
      tensor {
        dtype: DT_INT32
        tensor_shape {
        }
        int_val: 1
      }
    }
  }
}
node {
  name: "rnn/rnn/basic_lstm_cell/basic_lstm_cell_3/concat"
  op: "ConcatV2"
  input: "split:3"
  input: "rnn/rnn/basic_lstm_cell/mul_8"
  input: "rnn/rnn/basic_lstm_cell/basic_lstm_cell_3/concat/axis"
  attr {
    key: "N"
    value {
      i: 2
    }
  }
  attr {
    key: "T"
    value {
      type: DT_FLOAT
    }
  }
  attr {
    key: "Tidx"
    value {
      type: DT_INT32
    }
  }
  attr {
    key: "_output_shapes"
    value {
      list {
        shape {
          dim {
            size: -1
          }
          dim {
            size: 4
          }
        }
      }
    }
  }
}
node {
  name: "rnn/rnn/basic_lstm_cell/basic_lstm_cell_3/MatMul"
  op: "MatMul"
  input: "rnn/rnn/basic_lstm_cell/basic_lstm_cell_3/concat"
  input: "rnn/basic_lstm_cell/kernel/read"
  attr {
    key: "T"
    value {
      type: DT_FLOAT
    }
  }
  attr {
    key: "_output_shapes"
    value {
      list {
        shape {
          dim {
            size: -1
          }
          dim {
            size: 12
          }
        }
      }
    }
  }
  attr {
    key: "transpose_a"
    value {
      b: false
    }
  }
  attr {
    key: "transpose_b"
    value {
      b: false
    }
  }
}
node {
  name: "rnn/rnn/basic_lstm_cell/basic_lstm_cell_3/BiasAdd"
  op: "BiasAdd"
  input: "rnn/rnn/basic_lstm_cell/basic_lstm_cell_3/MatMul"
  input: "rnn/basic_lstm_cell/bias/read"
  attr {
    key: "T"
    value {
      type: DT_FLOAT
    }
  }
  attr {
    key: "_output_shapes"
    value {
      list {
        shape {
          dim {
            size: -1
          }
          dim {
            size: 12
          }
        }
      }
    }
  }
  attr {
    key: "data_format"
    value {
      s: "NHWC"
    }
  }
}
node {
  name: "rnn/rnn/basic_lstm_cell/Const_3"
  op: "Const"
  attr {
    key: "_output_shapes"
    value {
      list {
        shape {
        }
      }
    }
  }
  attr {
    key: "dtype"
    value {
      type: DT_INT32
    }
  }
  attr {
    key: "value"
    value {
      tensor {
        dtype: DT_INT32
        tensor_shape {
        }
        int_val: 4
      }
    }
  }
}
node {
  name: "rnn/rnn/basic_lstm_cell/split_3/split_dim"
  op: "Const"
  attr {
    key: "_output_shapes"
    value {
      list {
        shape {
        }
      }
    }
  }
  attr {
    key: "dtype"
    value {
      type: DT_INT32
    }
  }
  attr {
    key: "value"
    value {
      tensor {
        dtype: DT_INT32
        tensor_shape {
        }
        int_val: 1
      }
    }
  }
}
node {
  name: "rnn/rnn/basic_lstm_cell/split_3"
  op: "Split"
  input: "rnn/rnn/basic_lstm_cell/split_3/split_dim"
  input: "rnn/rnn/basic_lstm_cell/basic_lstm_cell_3/BiasAdd"
  attr {
    key: "T"
    value {
      type: DT_FLOAT
    }
  }
  attr {
    key: "_output_shapes"
    value {
      list {
        shape {
          dim {
            size: -1
          }
          dim {
            size: 3
          }
        }
        shape {
          dim {
            size: -1
          }
          dim {
            size: 3
          }
        }
        shape {
          dim {
            size: -1
          }
          dim {
            size: 3
          }
        }
        shape {
          dim {
            size: -1
          }
          dim {
            size: 3
          }
        }
      }
    }
  }
  attr {
    key: "num_split"
    value {
      i: 4
    }
  }
}
node {
  name: "rnn/rnn/basic_lstm_cell/add_6/y"
  op: "Const"
  attr {
    key: "_output_shapes"
    value {
      list {
        shape {
        }
      }
    }
  }
  attr {
    key: "dtype"
    value {
      type: DT_FLOAT
    }
  }
  attr {
    key: "value"
    value {
      tensor {
        dtype: DT_FLOAT
        tensor_shape {
        }
        float_val: 1.0
      }
    }
  }
}
node {
  name: "rnn/rnn/basic_lstm_cell/add_6"
  op: "Add"
  input: "rnn/rnn/basic_lstm_cell/split_3:2"
  input: "rnn/rnn/basic_lstm_cell/add_6/y"
  attr {
    key: "T"
    value {
      type: DT_FLOAT
    }
  }
  attr {
    key: "_output_shapes"
    value {
      list {
        shape {
          dim {
            size: -1
          }
          dim {
            size: 3
          }
        }
      }
    }
  }
}
node {
  name: "rnn/rnn/basic_lstm_cell/Sigmoid_9"
  op: "Sigmoid"
  input: "rnn/rnn/basic_lstm_cell/add_6"
  attr {
    key: "T"
    value {
      type: DT_FLOAT
    }
  }
  attr {
    key: "_output_shapes"
    value {
      list {
        shape {
          dim {
            size: -1
          }
          dim {
            size: 3
          }
        }
      }
    }
  }
}
node {
  name: "rnn/rnn/basic_lstm_cell/mul_9"
  op: "Mul"
  input: "rnn/rnn/basic_lstm_cell/add_5"
  input: "rnn/rnn/basic_lstm_cell/Sigmoid_9"
  attr {
    key: "T"
    value {
      type: DT_FLOAT
    }
  }
  attr {
    key: "_output_shapes"
    value {
      list {
        shape {
          dim {
            size: -1
          }
          dim {
            size: 3
          }
        }
      }
    }
  }
}
node {
  name: "rnn/rnn/basic_lstm_cell/Sigmoid_10"
  op: "Sigmoid"
  input: "rnn/rnn/basic_lstm_cell/split_3"
  attr {
    key: "T"
    value {
      type: DT_FLOAT
    }
  }
  attr {
    key: "_output_shapes"
    value {
      list {
        shape {
          dim {
            size: -1
          }
          dim {
            size: 3
          }
        }
      }
    }
  }
}
node {
  name: "rnn/rnn/basic_lstm_cell/Tanh_6"
  op: "Tanh"
  input: "rnn/rnn/basic_lstm_cell/split_3:1"
  attr {
    key: "T"
    value {
      type: DT_FLOAT
    }
  }
  attr {
    key: "_output_shapes"
    value {
      list {
        shape {
          dim {
            size: -1
          }
          dim {
            size: 3
          }
        }
      }
    }
  }
}
node {
  name: "rnn/rnn/basic_lstm_cell/mul_10"
  op: "Mul"
  input: "rnn/rnn/basic_lstm_cell/Sigmoid_10"
  input: "rnn/rnn/basic_lstm_cell/Tanh_6"
  attr {
    key: "T"
    value {
      type: DT_FLOAT
    }
  }
  attr {
    key: "_output_shapes"
    value {
      list {
        shape {
          dim {
            size: -1
          }
          dim {
            size: 3
          }
        }
      }
    }
  }
}
node {
  name: "rnn/rnn/basic_lstm_cell/add_7"
  op: "Add"
  input: "rnn/rnn/basic_lstm_cell/mul_9"
  input: "rnn/rnn/basic_lstm_cell/mul_10"
  attr {
    key: "T"
    value {
      type: DT_FLOAT
    }
  }
  attr {
    key: "_output_shapes"
    value {
      list {
        shape {
          dim {
            size: -1
          }
          dim {
            size: 3
          }
        }
      }
    }
  }
}
node {
  name: "rnn/rnn/basic_lstm_cell/Tanh_7"
  op: "Tanh"
  input: "rnn/rnn/basic_lstm_cell/add_7"
  attr {
    key: "T"
    value {
      type: DT_FLOAT
    }
  }
  attr {
    key: "_output_shapes"
    value {
      list {
        shape {
          dim {
            size: -1
          }
          dim {
            size: 3
          }
        }
      }
    }
  }
}
node {
  name: "rnn/rnn/basic_lstm_cell/Sigmoid_11"
  op: "Sigmoid"
  input: "rnn/rnn/basic_lstm_cell/split_3:3"
  attr {
    key: "T"
    value {
      type: DT_FLOAT
    }
  }
  attr {
    key: "_output_shapes"
    value {
      list {
        shape {
          dim {
            size: -1
          }
          dim {
            size: 3
          }
        }
      }
    }
  }
}
node {
  name: "rnn/rnn/basic_lstm_cell/mul_11"
  op: "Mul"
  input: "rnn/rnn/basic_lstm_cell/Tanh_7"
  input: "rnn/rnn/basic_lstm_cell/Sigmoid_11"
  attr {
    key: "T"
    value {
      type: DT_FLOAT
    }
  }
  attr {
    key: "_output_shapes"
    value {
      list {
        shape {
          dim {
            size: -1
          }
          dim {
            size: 3
          }
        }
      }
    }
  }
}
node {
  name: "rnn/rnn/basic_lstm_cell/basic_lstm_cell_4/concat/axis"
  op: "Const"
  attr {
    key: "_output_shapes"
    value {
      list {
        shape {
        }
      }
    }
  }
  attr {
    key: "dtype"
    value {
      type: DT_INT32
    }
  }
  attr {
    key: "value"
    value {
      tensor {
        dtype: DT_INT32
        tensor_shape {
        }
        int_val: 1
      }
    }
  }
}
node {
  name: "rnn/rnn/basic_lstm_cell/basic_lstm_cell_4/concat"
  op: "ConcatV2"
  input: "split:4"
  input: "rnn/rnn/basic_lstm_cell/mul_11"
  input: "rnn/rnn/basic_lstm_cell/basic_lstm_cell_4/concat/axis"
  attr {
    key: "N"
    value {
      i: 2
    }
  }
  attr {
    key: "T"
    value {
      type: DT_FLOAT
    }
  }
  attr {
    key: "Tidx"
    value {
      type: DT_INT32
    }
  }
  attr {
    key: "_output_shapes"
    value {
      list {
        shape {
          dim {
            size: -1
          }
          dim {
            size: 4
          }
        }
      }
    }
  }
}
node {
  name: "rnn/rnn/basic_lstm_cell/basic_lstm_cell_4/MatMul"
  op: "MatMul"
  input: "rnn/rnn/basic_lstm_cell/basic_lstm_cell_4/concat"
  input: "rnn/basic_lstm_cell/kernel/read"
  attr {
    key: "T"
    value {
      type: DT_FLOAT
    }
  }
  attr {
    key: "_output_shapes"
    value {
      list {
        shape {
          dim {
            size: -1
          }
          dim {
            size: 12
          }
        }
      }
    }
  }
  attr {
    key: "transpose_a"
    value {
      b: false
    }
  }
  attr {
    key: "transpose_b"
    value {
      b: false
    }
  }
}
node {
  name: "rnn/rnn/basic_lstm_cell/basic_lstm_cell_4/BiasAdd"
  op: "BiasAdd"
  input: "rnn/rnn/basic_lstm_cell/basic_lstm_cell_4/MatMul"
  input: "rnn/basic_lstm_cell/bias/read"
  attr {
    key: "T"
    value {
      type: DT_FLOAT
    }
  }
  attr {
    key: "_output_shapes"
    value {
      list {
        shape {
          dim {
            size: -1
          }
          dim {
            size: 12
          }
        }
      }
    }
  }
  attr {
    key: "data_format"
    value {
      s: "NHWC"
    }
  }
}
node {
  name: "rnn/rnn/basic_lstm_cell/Const_4"
  op: "Const"
  attr {
    key: "_output_shapes"
    value {
      list {
        shape {
        }
      }
    }
  }
  attr {
    key: "dtype"
    value {
      type: DT_INT32
    }
  }
  attr {
    key: "value"
    value {
      tensor {
        dtype: DT_INT32
        tensor_shape {
        }
        int_val: 4
      }
    }
  }
}
node {
  name: "rnn/rnn/basic_lstm_cell/split_4/split_dim"
  op: "Const"
  attr {
    key: "_output_shapes"
    value {
      list {
        shape {
        }
      }
    }
  }
  attr {
    key: "dtype"
    value {
      type: DT_INT32
    }
  }
  attr {
    key: "value"
    value {
      tensor {
        dtype: DT_INT32
        tensor_shape {
        }
        int_val: 1
      }
    }
  }
}
node {
  name: "rnn/rnn/basic_lstm_cell/split_4"
  op: "Split"
  input: "rnn/rnn/basic_lstm_cell/split_4/split_dim"
  input: "rnn/rnn/basic_lstm_cell/basic_lstm_cell_4/BiasAdd"
  attr {
    key: "T"
    value {
      type: DT_FLOAT
    }
  }
  attr {
    key: "_output_shapes"
    value {
      list {
        shape {
          dim {
            size: -1
          }
          dim {
            size: 3
          }
        }
        shape {
          dim {
            size: -1
          }
          dim {
            size: 3
          }
        }
        shape {
          dim {
            size: -1
          }
          dim {
            size: 3
          }
        }
        shape {
          dim {
            size: -1
          }
          dim {
            size: 3
          }
        }
      }
    }
  }
  attr {
    key: "num_split"
    value {
      i: 4
    }
  }
}
node {
  name: "rnn/rnn/basic_lstm_cell/add_8/y"
  op: "Const"
  attr {
    key: "_output_shapes"
    value {
      list {
        shape {
        }
      }
    }
  }
  attr {
    key: "dtype"
    value {
      type: DT_FLOAT
    }
  }
  attr {
    key: "value"
    value {
      tensor {
        dtype: DT_FLOAT
        tensor_shape {
        }
        float_val: 1.0
      }
    }
  }
}
node {
  name: "rnn/rnn/basic_lstm_cell/add_8"
  op: "Add"
  input: "rnn/rnn/basic_lstm_cell/split_4:2"
  input: "rnn/rnn/basic_lstm_cell/add_8/y"
  attr {
    key: "T"
    value {
      type: DT_FLOAT
    }
  }
  attr {
    key: "_output_shapes"
    value {
      list {
        shape {
          dim {
            size: -1
          }
          dim {
            size: 3
          }
        }
      }
    }
  }
}
node {
  name: "rnn/rnn/basic_lstm_cell/Sigmoid_12"
  op: "Sigmoid"
  input: "rnn/rnn/basic_lstm_cell/add_8"
  attr {
    key: "T"
    value {
      type: DT_FLOAT
    }
  }
  attr {
    key: "_output_shapes"
    value {
      list {
        shape {
          dim {
            size: -1
          }
          dim {
            size: 3
          }
        }
      }
    }
  }
}
node {
  name: "rnn/rnn/basic_lstm_cell/mul_12"
  op: "Mul"
  input: "rnn/rnn/basic_lstm_cell/add_7"
  input: "rnn/rnn/basic_lstm_cell/Sigmoid_12"
  attr {
    key: "T"
    value {
      type: DT_FLOAT
    }
  }
  attr {
    key: "_output_shapes"
    value {
      list {
        shape {
          dim {
            size: -1
          }
          dim {
            size: 3
          }
        }
      }
    }
  }
}
node {
  name: "rnn/rnn/basic_lstm_cell/Sigmoid_13"
  op: "Sigmoid"
  input: "rnn/rnn/basic_lstm_cell/split_4"
  attr {
    key: "T"
    value {
      type: DT_FLOAT
    }
  }
  attr {
    key: "_output_shapes"
    value {
      list {
        shape {
          dim {
            size: -1
          }
          dim {
            size: 3
          }
        }
      }
    }
  }
}
node {
  name: "rnn/rnn/basic_lstm_cell/Tanh_8"
  op: "Tanh"
  input: "rnn/rnn/basic_lstm_cell/split_4:1"
  attr {
    key: "T"
    value {
      type: DT_FLOAT
    }
  }
  attr {
    key: "_output_shapes"
    value {
      list {
        shape {
          dim {
            size: -1
          }
          dim {
            size: 3
          }
        }
      }
    }
  }
}
node {
  name: "rnn/rnn/basic_lstm_cell/mul_13"
  op: "Mul"
  input: "rnn/rnn/basic_lstm_cell/Sigmoid_13"
  input: "rnn/rnn/basic_lstm_cell/Tanh_8"
  attr {
    key: "T"
    value {
      type: DT_FLOAT
    }
  }
  attr {
    key: "_output_shapes"
    value {
      list {
        shape {
          dim {
            size: -1
          }
          dim {
            size: 3
          }
        }
      }
    }
  }
}
node {
  name: "rnn/rnn/basic_lstm_cell/add_9"
  op: "Add"
  input: "rnn/rnn/basic_lstm_cell/mul_12"
  input: "rnn/rnn/basic_lstm_cell/mul_13"
  attr {
    key: "T"
    value {
      type: DT_FLOAT
    }
  }
  attr {
    key: "_output_shapes"
    value {
      list {
        shape {
          dim {
            size: -1
          }
          dim {
            size: 3
          }
        }
      }
    }
  }
}
node {
  name: "rnn/rnn/basic_lstm_cell/Tanh_9"
  op: "Tanh"
  input: "rnn/rnn/basic_lstm_cell/add_9"
  attr {
    key: "T"
    value {
      type: DT_FLOAT
    }
  }
  attr {
    key: "_output_shapes"
    value {
      list {
        shape {
          dim {
            size: -1
          }
          dim {
            size: 3
          }
        }
      }
    }
  }
}
node {
  name: "rnn/rnn/basic_lstm_cell/Sigmoid_14"
  op: "Sigmoid"
  input: "rnn/rnn/basic_lstm_cell/split_4:3"
  attr {
    key: "T"
    value {
      type: DT_FLOAT
    }
  }
  attr {
    key: "_output_shapes"
    value {
      list {
        shape {
          dim {
            size: -1
          }
          dim {
            size: 3
          }
        }
      }
    }
  }
}
node {
  name: "rnn/rnn/basic_lstm_cell/mul_14"
  op: "Mul"
  input: "rnn/rnn/basic_lstm_cell/Tanh_9"
  input: "rnn/rnn/basic_lstm_cell/Sigmoid_14"
  attr {
    key: "T"
    value {
      type: DT_FLOAT
    }
  }
  attr {
    key: "_output_shapes"
    value {
      list {
        shape {
          dim {
            size: -1
          }
          dim {
            size: 3
          }
        }
      }
    }
  }
}
node {
  name: "rnn/rnn/basic_lstm_cell/basic_lstm_cell_5/concat/axis"
  op: "Const"
  attr {
    key: "_output_shapes"
    value {
      list {
        shape {
        }
      }
    }
  }
  attr {
    key: "dtype"
    value {
      type: DT_INT32
    }
  }
  attr {
    key: "value"
    value {
      tensor {
        dtype: DT_INT32
        tensor_shape {
        }
        int_val: 1
      }
    }
  }
}
node {
  name: "rnn/rnn/basic_lstm_cell/basic_lstm_cell_5/concat"
  op: "ConcatV2"
  input: "split:5"
  input: "rnn/rnn/basic_lstm_cell/mul_14"
  input: "rnn/rnn/basic_lstm_cell/basic_lstm_cell_5/concat/axis"
  attr {
    key: "N"
    value {
      i: 2
    }
  }
  attr {
    key: "T"
    value {
      type: DT_FLOAT
    }
  }
  attr {
    key: "Tidx"
    value {
      type: DT_INT32
    }
  }
  attr {
    key: "_output_shapes"
    value {
      list {
        shape {
          dim {
            size: -1
          }
          dim {
            size: 4
          }
        }
      }
    }
  }
}
node {
  name: "rnn/rnn/basic_lstm_cell/basic_lstm_cell_5/MatMul"
  op: "MatMul"
  input: "rnn/rnn/basic_lstm_cell/basic_lstm_cell_5/concat"
  input: "rnn/basic_lstm_cell/kernel/read"
  attr {
    key: "T"
    value {
      type: DT_FLOAT
    }
  }
  attr {
    key: "_output_shapes"
    value {
      list {
        shape {
          dim {
            size: -1
          }
          dim {
            size: 12
          }
        }
      }
    }
  }
  attr {
    key: "transpose_a"
    value {
      b: false
    }
  }
  attr {
    key: "transpose_b"
    value {
      b: false
    }
  }
}
node {
  name: "rnn/rnn/basic_lstm_cell/basic_lstm_cell_5/BiasAdd"
  op: "BiasAdd"
  input: "rnn/rnn/basic_lstm_cell/basic_lstm_cell_5/MatMul"
  input: "rnn/basic_lstm_cell/bias/read"
  attr {
    key: "T"
    value {
      type: DT_FLOAT
    }
  }
  attr {
    key: "_output_shapes"
    value {
      list {
        shape {
          dim {
            size: -1
          }
          dim {
            size: 12
          }
        }
      }
    }
  }
  attr {
    key: "data_format"
    value {
      s: "NHWC"
    }
  }
}
node {
  name: "rnn/rnn/basic_lstm_cell/Const_5"
  op: "Const"
  attr {
    key: "_output_shapes"
    value {
      list {
        shape {
        }
      }
    }
  }
  attr {
    key: "dtype"
    value {
      type: DT_INT32
    }
  }
  attr {
    key: "value"
    value {
      tensor {
        dtype: DT_INT32
        tensor_shape {
        }
        int_val: 4
      }
    }
  }
}
node {
  name: "rnn/rnn/basic_lstm_cell/split_5/split_dim"
  op: "Const"
  attr {
    key: "_output_shapes"
    value {
      list {
        shape {
        }
      }
    }
  }
  attr {
    key: "dtype"
    value {
      type: DT_INT32
    }
  }
  attr {
    key: "value"
    value {
      tensor {
        dtype: DT_INT32
        tensor_shape {
        }
        int_val: 1
      }
    }
  }
}
node {
  name: "rnn/rnn/basic_lstm_cell/split_5"
  op: "Split"
  input: "rnn/rnn/basic_lstm_cell/split_5/split_dim"
  input: "rnn/rnn/basic_lstm_cell/basic_lstm_cell_5/BiasAdd"
  attr {
    key: "T"
    value {
      type: DT_FLOAT
    }
  }
  attr {
    key: "_output_shapes"
    value {
      list {
        shape {
          dim {
            size: -1
          }
          dim {
            size: 3
          }
        }
        shape {
          dim {
            size: -1
          }
          dim {
            size: 3
          }
        }
        shape {
          dim {
            size: -1
          }
          dim {
            size: 3
          }
        }
        shape {
          dim {
            size: -1
          }
          dim {
            size: 3
          }
        }
      }
    }
  }
  attr {
    key: "num_split"
    value {
      i: 4
    }
  }
}
node {
  name: "rnn/rnn/basic_lstm_cell/add_10/y"
  op: "Const"
  attr {
    key: "_output_shapes"
    value {
      list {
        shape {
        }
      }
    }
  }
  attr {
    key: "dtype"
    value {
      type: DT_FLOAT
    }
  }
  attr {
    key: "value"
    value {
      tensor {
        dtype: DT_FLOAT
        tensor_shape {
        }
        float_val: 1.0
      }
    }
  }
}
node {
  name: "rnn/rnn/basic_lstm_cell/add_10"
  op: "Add"
  input: "rnn/rnn/basic_lstm_cell/split_5:2"
  input: "rnn/rnn/basic_lstm_cell/add_10/y"
  attr {
    key: "T"
    value {
      type: DT_FLOAT
    }
  }
  attr {
    key: "_output_shapes"
    value {
      list {
        shape {
          dim {
            size: -1
          }
          dim {
            size: 3
          }
        }
      }
    }
  }
}
node {
  name: "rnn/rnn/basic_lstm_cell/Sigmoid_15"
  op: "Sigmoid"
  input: "rnn/rnn/basic_lstm_cell/add_10"
  attr {
    key: "T"
    value {
      type: DT_FLOAT
    }
  }
  attr {
    key: "_output_shapes"
    value {
      list {
        shape {
          dim {
            size: -1
          }
          dim {
            size: 3
          }
        }
      }
    }
  }
}
node {
  name: "rnn/rnn/basic_lstm_cell/mul_15"
  op: "Mul"
  input: "rnn/rnn/basic_lstm_cell/add_9"
  input: "rnn/rnn/basic_lstm_cell/Sigmoid_15"
  attr {
    key: "T"
    value {
      type: DT_FLOAT
    }
  }
  attr {
    key: "_output_shapes"
    value {
      list {
        shape {
          dim {
            size: -1
          }
          dim {
            size: 3
          }
        }
      }
    }
  }
}
node {
  name: "rnn/rnn/basic_lstm_cell/Sigmoid_16"
  op: "Sigmoid"
  input: "rnn/rnn/basic_lstm_cell/split_5"
  attr {
    key: "T"
    value {
      type: DT_FLOAT
    }
  }
  attr {
    key: "_output_shapes"
    value {
      list {
        shape {
          dim {
            size: -1
          }
          dim {
            size: 3
          }
        }
      }
    }
  }
}
node {
  name: "rnn/rnn/basic_lstm_cell/Tanh_10"
  op: "Tanh"
  input: "rnn/rnn/basic_lstm_cell/split_5:1"
  attr {
    key: "T"
    value {
      type: DT_FLOAT
    }
  }
  attr {
    key: "_output_shapes"
    value {
      list {
        shape {
          dim {
            size: -1
          }
          dim {
            size: 3
          }
        }
      }
    }
  }
}
node {
  name: "rnn/rnn/basic_lstm_cell/mul_16"
  op: "Mul"
  input: "rnn/rnn/basic_lstm_cell/Sigmoid_16"
  input: "rnn/rnn/basic_lstm_cell/Tanh_10"
  attr {
    key: "T"
    value {
      type: DT_FLOAT
    }
  }
  attr {
    key: "_output_shapes"
    value {
      list {
        shape {
          dim {
            size: -1
          }
          dim {
            size: 3
          }
        }
      }
    }
  }
}
node {
  name: "rnn/rnn/basic_lstm_cell/add_11"
  op: "Add"
  input: "rnn/rnn/basic_lstm_cell/mul_15"
  input: "rnn/rnn/basic_lstm_cell/mul_16"
  attr {
    key: "T"
    value {
      type: DT_FLOAT
    }
  }
  attr {
    key: "_output_shapes"
    value {
      list {
        shape {
          dim {
            size: -1
          }
          dim {
            size: 3
          }
        }
      }
    }
  }
}
node {
  name: "rnn/rnn/basic_lstm_cell/Tanh_11"
  op: "Tanh"
  input: "rnn/rnn/basic_lstm_cell/add_11"
  attr {
    key: "T"
    value {
      type: DT_FLOAT
    }
  }
  attr {
    key: "_output_shapes"
    value {
      list {
        shape {
          dim {
            size: -1
          }
          dim {
            size: 3
          }
        }
      }
    }
  }
}
node {
  name: "rnn/rnn/basic_lstm_cell/Sigmoid_17"
  op: "Sigmoid"
  input: "rnn/rnn/basic_lstm_cell/split_5:3"
  attr {
    key: "T"
    value {
      type: DT_FLOAT
    }
  }
  attr {
    key: "_output_shapes"
    value {
      list {
        shape {
          dim {
            size: -1
          }
          dim {
            size: 3
          }
        }
      }
    }
  }
}
node {
  name: "rnn/rnn/basic_lstm_cell/mul_17"
  op: "Mul"
  input: "rnn/rnn/basic_lstm_cell/Tanh_11"
  input: "rnn/rnn/basic_lstm_cell/Sigmoid_17"
  attr {
    key: "T"
    value {
      type: DT_FLOAT
    }
  }
  attr {
    key: "_output_shapes"
    value {
      list {
        shape {
          dim {
            size: -1
          }
          dim {
            size: 3
          }
        }
      }
    }
  }
}
node {
  name: "rnn/rnn/basic_lstm_cell/basic_lstm_cell_6/concat/axis"
  op: "Const"
  attr {
    key: "_output_shapes"
    value {
      list {
        shape {
        }
      }
    }
  }
  attr {
    key: "dtype"
    value {
      type: DT_INT32
    }
  }
  attr {
    key: "value"
    value {
      tensor {
        dtype: DT_INT32
        tensor_shape {
        }
        int_val: 1
      }
    }
  }
}
node {
  name: "rnn/rnn/basic_lstm_cell/basic_lstm_cell_6/concat"
  op: "ConcatV2"
  input: "split:6"
  input: "rnn/rnn/basic_lstm_cell/mul_17"
  input: "rnn/rnn/basic_lstm_cell/basic_lstm_cell_6/concat/axis"
  attr {
    key: "N"
    value {
      i: 2
    }
  }
  attr {
    key: "T"
    value {
      type: DT_FLOAT
    }
  }
  attr {
    key: "Tidx"
    value {
      type: DT_INT32
    }
  }
  attr {
    key: "_output_shapes"
    value {
      list {
        shape {
          dim {
            size: -1
          }
          dim {
            size: 4
          }
        }
      }
    }
  }
}
node {
  name: "rnn/rnn/basic_lstm_cell/basic_lstm_cell_6/MatMul"
  op: "MatMul"
  input: "rnn/rnn/basic_lstm_cell/basic_lstm_cell_6/concat"
  input: "rnn/basic_lstm_cell/kernel/read"
  attr {
    key: "T"
    value {
      type: DT_FLOAT
    }
  }
  attr {
    key: "_output_shapes"
    value {
      list {
        shape {
          dim {
            size: -1
          }
          dim {
            size: 12
          }
        }
      }
    }
  }
  attr {
    key: "transpose_a"
    value {
      b: false
    }
  }
  attr {
    key: "transpose_b"
    value {
      b: false
    }
  }
}
node {
  name: "rnn/rnn/basic_lstm_cell/basic_lstm_cell_6/BiasAdd"
  op: "BiasAdd"
  input: "rnn/rnn/basic_lstm_cell/basic_lstm_cell_6/MatMul"
  input: "rnn/basic_lstm_cell/bias/read"
  attr {
    key: "T"
    value {
      type: DT_FLOAT
    }
  }
  attr {
    key: "_output_shapes"
    value {
      list {
        shape {
          dim {
            size: -1
          }
          dim {
            size: 12
          }
        }
      }
    }
  }
  attr {
    key: "data_format"
    value {
      s: "NHWC"
    }
  }
}
node {
  name: "rnn/rnn/basic_lstm_cell/Const_6"
  op: "Const"
  attr {
    key: "_output_shapes"
    value {
      list {
        shape {
        }
      }
    }
  }
  attr {
    key: "dtype"
    value {
      type: DT_INT32
    }
  }
  attr {
    key: "value"
    value {
      tensor {
        dtype: DT_INT32
        tensor_shape {
        }
        int_val: 4
      }
    }
  }
}
node {
  name: "rnn/rnn/basic_lstm_cell/split_6/split_dim"
  op: "Const"
  attr {
    key: "_output_shapes"
    value {
      list {
        shape {
        }
      }
    }
  }
  attr {
    key: "dtype"
    value {
      type: DT_INT32
    }
  }
  attr {
    key: "value"
    value {
      tensor {
        dtype: DT_INT32
        tensor_shape {
        }
        int_val: 1
      }
    }
  }
}
node {
  name: "rnn/rnn/basic_lstm_cell/split_6"
  op: "Split"
  input: "rnn/rnn/basic_lstm_cell/split_6/split_dim"
  input: "rnn/rnn/basic_lstm_cell/basic_lstm_cell_6/BiasAdd"
  attr {
    key: "T"
    value {
      type: DT_FLOAT
    }
  }
  attr {
    key: "_output_shapes"
    value {
      list {
        shape {
          dim {
            size: -1
          }
          dim {
            size: 3
          }
        }
        shape {
          dim {
            size: -1
          }
          dim {
            size: 3
          }
        }
        shape {
          dim {
            size: -1
          }
          dim {
            size: 3
          }
        }
        shape {
          dim {
            size: -1
          }
          dim {
            size: 3
          }
        }
      }
    }
  }
  attr {
    key: "num_split"
    value {
      i: 4
    }
  }
}
node {
  name: "rnn/rnn/basic_lstm_cell/add_12/y"
  op: "Const"
  attr {
    key: "_output_shapes"
    value {
      list {
        shape {
        }
      }
    }
  }
  attr {
    key: "dtype"
    value {
      type: DT_FLOAT
    }
  }
  attr {
    key: "value"
    value {
      tensor {
        dtype: DT_FLOAT
        tensor_shape {
        }
        float_val: 1.0
      }
    }
  }
}
node {
  name: "rnn/rnn/basic_lstm_cell/add_12"
  op: "Add"
  input: "rnn/rnn/basic_lstm_cell/split_6:2"
  input: "rnn/rnn/basic_lstm_cell/add_12/y"
  attr {
    key: "T"
    value {
      type: DT_FLOAT
    }
  }
  attr {
    key: "_output_shapes"
    value {
      list {
        shape {
          dim {
            size: -1
          }
          dim {
            size: 3
          }
        }
      }
    }
  }
}
node {
  name: "rnn/rnn/basic_lstm_cell/Sigmoid_18"
  op: "Sigmoid"
  input: "rnn/rnn/basic_lstm_cell/add_12"
  attr {
    key: "T"
    value {
      type: DT_FLOAT
    }
  }
  attr {
    key: "_output_shapes"
    value {
      list {
        shape {
          dim {
            size: -1
          }
          dim {
            size: 3
          }
        }
      }
    }
  }
}
node {
  name: "rnn/rnn/basic_lstm_cell/mul_18"
  op: "Mul"
  input: "rnn/rnn/basic_lstm_cell/add_11"
  input: "rnn/rnn/basic_lstm_cell/Sigmoid_18"
  attr {
    key: "T"
    value {
      type: DT_FLOAT
    }
  }
  attr {
    key: "_output_shapes"
    value {
      list {
        shape {
          dim {
            size: -1
          }
          dim {
            size: 3
          }
        }
      }
    }
  }
}
node {
  name: "rnn/rnn/basic_lstm_cell/Sigmoid_19"
  op: "Sigmoid"
  input: "rnn/rnn/basic_lstm_cell/split_6"
  attr {
    key: "T"
    value {
      type: DT_FLOAT
    }
  }
  attr {
    key: "_output_shapes"
    value {
      list {
        shape {
          dim {
            size: -1
          }
          dim {
            size: 3
          }
        }
      }
    }
  }
}
node {
  name: "rnn/rnn/basic_lstm_cell/Tanh_12"
  op: "Tanh"
  input: "rnn/rnn/basic_lstm_cell/split_6:1"
  attr {
    key: "T"
    value {
      type: DT_FLOAT
    }
  }
  attr {
    key: "_output_shapes"
    value {
      list {
        shape {
          dim {
            size: -1
          }
          dim {
            size: 3
          }
        }
      }
    }
  }
}
node {
  name: "rnn/rnn/basic_lstm_cell/mul_19"
  op: "Mul"
  input: "rnn/rnn/basic_lstm_cell/Sigmoid_19"
  input: "rnn/rnn/basic_lstm_cell/Tanh_12"
  attr {
    key: "T"
    value {
      type: DT_FLOAT
    }
  }
  attr {
    key: "_output_shapes"
    value {
      list {
        shape {
          dim {
            size: -1
          }
          dim {
            size: 3
          }
        }
      }
    }
  }
}
node {
  name: "rnn/rnn/basic_lstm_cell/add_13"
  op: "Add"
  input: "rnn/rnn/basic_lstm_cell/mul_18"
  input: "rnn/rnn/basic_lstm_cell/mul_19"
  attr {
    key: "T"
    value {
      type: DT_FLOAT
    }
  }
  attr {
    key: "_output_shapes"
    value {
      list {
        shape {
          dim {
            size: -1
          }
          dim {
            size: 3
          }
        }
      }
    }
  }
}
node {
  name: "rnn/rnn/basic_lstm_cell/Tanh_13"
  op: "Tanh"
  input: "rnn/rnn/basic_lstm_cell/add_13"
  attr {
    key: "T"
    value {
      type: DT_FLOAT
    }
  }
  attr {
    key: "_output_shapes"
    value {
      list {
        shape {
          dim {
            size: -1
          }
          dim {
            size: 3
          }
        }
      }
    }
  }
}
node {
  name: "rnn/rnn/basic_lstm_cell/Sigmoid_20"
  op: "Sigmoid"
  input: "rnn/rnn/basic_lstm_cell/split_6:3"
  attr {
    key: "T"
    value {
      type: DT_FLOAT
    }
  }
  attr {
    key: "_output_shapes"
    value {
      list {
        shape {
          dim {
            size: -1
          }
          dim {
            size: 3
          }
        }
      }
    }
  }
}
node {
  name: "rnn/rnn/basic_lstm_cell/mul_20"
  op: "Mul"
  input: "rnn/rnn/basic_lstm_cell/Tanh_13"
  input: "rnn/rnn/basic_lstm_cell/Sigmoid_20"
  attr {
    key: "T"
    value {
      type: DT_FLOAT
    }
  }
  attr {
    key: "_output_shapes"
    value {
      list {
        shape {
          dim {
            size: -1
          }
          dim {
            size: 3
          }
        }
      }
    }
  }
}
node {
  name: "rnn/rnn/basic_lstm_cell/basic_lstm_cell_7/concat/axis"
  op: "Const"
  attr {
    key: "_output_shapes"
    value {
      list {
        shape {
        }
      }
    }
  }
  attr {
    key: "dtype"
    value {
      type: DT_INT32
    }
  }
  attr {
    key: "value"
    value {
      tensor {
        dtype: DT_INT32
        tensor_shape {
        }
        int_val: 1
      }
    }
  }
}
node {
  name: "rnn/rnn/basic_lstm_cell/basic_lstm_cell_7/concat"
  op: "ConcatV2"
  input: "split:7"
  input: "rnn/rnn/basic_lstm_cell/mul_20"
  input: "rnn/rnn/basic_lstm_cell/basic_lstm_cell_7/concat/axis"
  attr {
    key: "N"
    value {
      i: 2
    }
  }
  attr {
    key: "T"
    value {
      type: DT_FLOAT
    }
  }
  attr {
    key: "Tidx"
    value {
      type: DT_INT32
    }
  }
  attr {
    key: "_output_shapes"
    value {
      list {
        shape {
          dim {
            size: -1
          }
          dim {
            size: 4
          }
        }
      }
    }
  }
}
node {
  name: "rnn/rnn/basic_lstm_cell/basic_lstm_cell_7/MatMul"
  op: "MatMul"
  input: "rnn/rnn/basic_lstm_cell/basic_lstm_cell_7/concat"
  input: "rnn/basic_lstm_cell/kernel/read"
  attr {
    key: "T"
    value {
      type: DT_FLOAT
    }
  }
  attr {
    key: "_output_shapes"
    value {
      list {
        shape {
          dim {
            size: -1
          }
          dim {
            size: 12
          }
        }
      }
    }
  }
  attr {
    key: "transpose_a"
    value {
      b: false
    }
  }
  attr {
    key: "transpose_b"
    value {
      b: false
    }
  }
}
node {
  name: "rnn/rnn/basic_lstm_cell/basic_lstm_cell_7/BiasAdd"
  op: "BiasAdd"
  input: "rnn/rnn/basic_lstm_cell/basic_lstm_cell_7/MatMul"
  input: "rnn/basic_lstm_cell/bias/read"
  attr {
    key: "T"
    value {
      type: DT_FLOAT
    }
  }
  attr {
    key: "_output_shapes"
    value {
      list {
        shape {
          dim {
            size: -1
          }
          dim {
            size: 12
          }
        }
      }
    }
  }
  attr {
    key: "data_format"
    value {
      s: "NHWC"
    }
  }
}
node {
  name: "rnn/rnn/basic_lstm_cell/Const_7"
  op: "Const"
  attr {
    key: "_output_shapes"
    value {
      list {
        shape {
        }
      }
    }
  }
  attr {
    key: "dtype"
    value {
      type: DT_INT32
    }
  }
  attr {
    key: "value"
    value {
      tensor {
        dtype: DT_INT32
        tensor_shape {
        }
        int_val: 4
      }
    }
  }
}
node {
  name: "rnn/rnn/basic_lstm_cell/split_7/split_dim"
  op: "Const"
  attr {
    key: "_output_shapes"
    value {
      list {
        shape {
        }
      }
    }
  }
  attr {
    key: "dtype"
    value {
      type: DT_INT32
    }
  }
  attr {
    key: "value"
    value {
      tensor {
        dtype: DT_INT32
        tensor_shape {
        }
        int_val: 1
      }
    }
  }
}
node {
  name: "rnn/rnn/basic_lstm_cell/split_7"
  op: "Split"
  input: "rnn/rnn/basic_lstm_cell/split_7/split_dim"
  input: "rnn/rnn/basic_lstm_cell/basic_lstm_cell_7/BiasAdd"
  attr {
    key: "T"
    value {
      type: DT_FLOAT
    }
  }
  attr {
    key: "_output_shapes"
    value {
      list {
        shape {
          dim {
            size: -1
          }
          dim {
            size: 3
          }
        }
        shape {
          dim {
            size: -1
          }
          dim {
            size: 3
          }
        }
        shape {
          dim {
            size: -1
          }
          dim {
            size: 3
          }
        }
        shape {
          dim {
            size: -1
          }
          dim {
            size: 3
          }
        }
      }
    }
  }
  attr {
    key: "num_split"
    value {
      i: 4
    }
  }
}
node {
  name: "rnn/rnn/basic_lstm_cell/add_14/y"
  op: "Const"
  attr {
    key: "_output_shapes"
    value {
      list {
        shape {
        }
      }
    }
  }
  attr {
    key: "dtype"
    value {
      type: DT_FLOAT
    }
  }
  attr {
    key: "value"
    value {
      tensor {
        dtype: DT_FLOAT
        tensor_shape {
        }
        float_val: 1.0
      }
    }
  }
}
node {
  name: "rnn/rnn/basic_lstm_cell/add_14"
  op: "Add"
  input: "rnn/rnn/basic_lstm_cell/split_7:2"
  input: "rnn/rnn/basic_lstm_cell/add_14/y"
  attr {
    key: "T"
    value {
      type: DT_FLOAT
    }
  }
  attr {
    key: "_output_shapes"
    value {
      list {
        shape {
          dim {
            size: -1
          }
          dim {
            size: 3
          }
        }
      }
    }
  }
}
node {
  name: "rnn/rnn/basic_lstm_cell/Sigmoid_21"
  op: "Sigmoid"
  input: "rnn/rnn/basic_lstm_cell/add_14"
  attr {
    key: "T"
    value {
      type: DT_FLOAT
    }
  }
  attr {
    key: "_output_shapes"
    value {
      list {
        shape {
          dim {
            size: -1
          }
          dim {
            size: 3
          }
        }
      }
    }
  }
}
node {
  name: "rnn/rnn/basic_lstm_cell/mul_21"
  op: "Mul"
  input: "rnn/rnn/basic_lstm_cell/add_13"
  input: "rnn/rnn/basic_lstm_cell/Sigmoid_21"
  attr {
    key: "T"
    value {
      type: DT_FLOAT
    }
  }
  attr {
    key: "_output_shapes"
    value {
      list {
        shape {
          dim {
            size: -1
          }
          dim {
            size: 3
          }
        }
      }
    }
  }
}
node {
  name: "rnn/rnn/basic_lstm_cell/Sigmoid_22"
  op: "Sigmoid"
  input: "rnn/rnn/basic_lstm_cell/split_7"
  attr {
    key: "T"
    value {
      type: DT_FLOAT
    }
  }
  attr {
    key: "_output_shapes"
    value {
      list {
        shape {
          dim {
            size: -1
          }
          dim {
            size: 3
          }
        }
      }
    }
  }
}
node {
  name: "rnn/rnn/basic_lstm_cell/Tanh_14"
  op: "Tanh"
  input: "rnn/rnn/basic_lstm_cell/split_7:1"
  attr {
    key: "T"
    value {
      type: DT_FLOAT
    }
  }
  attr {
    key: "_output_shapes"
    value {
      list {
        shape {
          dim {
            size: -1
          }
          dim {
            size: 3
          }
        }
      }
    }
  }
}
node {
  name: "rnn/rnn/basic_lstm_cell/mul_22"
  op: "Mul"
  input: "rnn/rnn/basic_lstm_cell/Sigmoid_22"
  input: "rnn/rnn/basic_lstm_cell/Tanh_14"
  attr {
    key: "T"
    value {
      type: DT_FLOAT
    }
  }
  attr {
    key: "_output_shapes"
    value {
      list {
        shape {
          dim {
            size: -1
          }
          dim {
            size: 3
          }
        }
      }
    }
  }
}
node {
  name: "rnn/rnn/basic_lstm_cell/add_15"
  op: "Add"
  input: "rnn/rnn/basic_lstm_cell/mul_21"
  input: "rnn/rnn/basic_lstm_cell/mul_22"
  attr {
    key: "T"
    value {
      type: DT_FLOAT
    }
  }
  attr {
    key: "_output_shapes"
    value {
      list {
        shape {
          dim {
            size: -1
          }
          dim {
            size: 3
          }
        }
      }
    }
  }
}
node {
  name: "rnn/rnn/basic_lstm_cell/Tanh_15"
  op: "Tanh"
  input: "rnn/rnn/basic_lstm_cell/add_15"
  attr {
    key: "T"
    value {
      type: DT_FLOAT
    }
  }
  attr {
    key: "_output_shapes"
    value {
      list {
        shape {
          dim {
            size: -1
          }
          dim {
            size: 3
          }
        }
      }
    }
  }
}
node {
  name: "rnn/rnn/basic_lstm_cell/Sigmoid_23"
  op: "Sigmoid"
  input: "rnn/rnn/basic_lstm_cell/split_7:3"
  attr {
    key: "T"
    value {
      type: DT_FLOAT
    }
  }
  attr {
    key: "_output_shapes"
    value {
      list {
        shape {
          dim {
            size: -1
          }
          dim {
            size: 3
          }
        }
      }
    }
  }
}
node {
  name: "rnn/rnn/basic_lstm_cell/mul_23"
  op: "Mul"
  input: "rnn/rnn/basic_lstm_cell/Tanh_15"
  input: "rnn/rnn/basic_lstm_cell/Sigmoid_23"
  attr {
    key: "T"
    value {
      type: DT_FLOAT
    }
  }
  attr {
    key: "_output_shapes"
    value {
      list {
        shape {
          dim {
            size: -1
          }
          dim {
            size: 3
          }
        }
      }
    }
  }
}
node {
  name: "rnn/rnn/basic_lstm_cell/basic_lstm_cell_8/concat/axis"
  op: "Const"
  attr {
    key: "_output_shapes"
    value {
      list {
        shape {
        }
      }
    }
  }
  attr {
    key: "dtype"
    value {
      type: DT_INT32
    }
  }
  attr {
    key: "value"
    value {
      tensor {
        dtype: DT_INT32
        tensor_shape {
        }
        int_val: 1
      }
    }
  }
}
node {
  name: "rnn/rnn/basic_lstm_cell/basic_lstm_cell_8/concat"
  op: "ConcatV2"
  input: "split:8"
  input: "rnn/rnn/basic_lstm_cell/mul_23"
  input: "rnn/rnn/basic_lstm_cell/basic_lstm_cell_8/concat/axis"
  attr {
    key: "N"
    value {
      i: 2
    }
  }
  attr {
    key: "T"
    value {
      type: DT_FLOAT
    }
  }
  attr {
    key: "Tidx"
    value {
      type: DT_INT32
    }
  }
  attr {
    key: "_output_shapes"
    value {
      list {
        shape {
          dim {
            size: -1
          }
          dim {
            size: 4
          }
        }
      }
    }
  }
}
node {
  name: "rnn/rnn/basic_lstm_cell/basic_lstm_cell_8/MatMul"
  op: "MatMul"
  input: "rnn/rnn/basic_lstm_cell/basic_lstm_cell_8/concat"
  input: "rnn/basic_lstm_cell/kernel/read"
  attr {
    key: "T"
    value {
      type: DT_FLOAT
    }
  }
  attr {
    key: "_output_shapes"
    value {
      list {
        shape {
          dim {
            size: -1
          }
          dim {
            size: 12
          }
        }
      }
    }
  }
  attr {
    key: "transpose_a"
    value {
      b: false
    }
  }
  attr {
    key: "transpose_b"
    value {
      b: false
    }
  }
}
node {
  name: "rnn/rnn/basic_lstm_cell/basic_lstm_cell_8/BiasAdd"
  op: "BiasAdd"
  input: "rnn/rnn/basic_lstm_cell/basic_lstm_cell_8/MatMul"
  input: "rnn/basic_lstm_cell/bias/read"
  attr {
    key: "T"
    value {
      type: DT_FLOAT
    }
  }
  attr {
    key: "_output_shapes"
    value {
      list {
        shape {
          dim {
            size: -1
          }
          dim {
            size: 12
          }
        }
      }
    }
  }
  attr {
    key: "data_format"
    value {
      s: "NHWC"
    }
  }
}
node {
  name: "rnn/rnn/basic_lstm_cell/Const_8"
  op: "Const"
  attr {
    key: "_output_shapes"
    value {
      list {
        shape {
        }
      }
    }
  }
  attr {
    key: "dtype"
    value {
      type: DT_INT32
    }
  }
  attr {
    key: "value"
    value {
      tensor {
        dtype: DT_INT32
        tensor_shape {
        }
        int_val: 4
      }
    }
  }
}
node {
  name: "rnn/rnn/basic_lstm_cell/split_8/split_dim"
  op: "Const"
  attr {
    key: "_output_shapes"
    value {
      list {
        shape {
        }
      }
    }
  }
  attr {
    key: "dtype"
    value {
      type: DT_INT32
    }
  }
  attr {
    key: "value"
    value {
      tensor {
        dtype: DT_INT32
        tensor_shape {
        }
        int_val: 1
      }
    }
  }
}
node {
  name: "rnn/rnn/basic_lstm_cell/split_8"
  op: "Split"
  input: "rnn/rnn/basic_lstm_cell/split_8/split_dim"
  input: "rnn/rnn/basic_lstm_cell/basic_lstm_cell_8/BiasAdd"
  attr {
    key: "T"
    value {
      type: DT_FLOAT
    }
  }
  attr {
    key: "_output_shapes"
    value {
      list {
        shape {
          dim {
            size: -1
          }
          dim {
            size: 3
          }
        }
        shape {
          dim {
            size: -1
          }
          dim {
            size: 3
          }
        }
        shape {
          dim {
            size: -1
          }
          dim {
            size: 3
          }
        }
        shape {
          dim {
            size: -1
          }
          dim {
            size: 3
          }
        }
      }
    }
  }
  attr {
    key: "num_split"
    value {
      i: 4
    }
  }
}
node {
  name: "rnn/rnn/basic_lstm_cell/add_16/y"
  op: "Const"
  attr {
    key: "_output_shapes"
    value {
      list {
        shape {
        }
      }
    }
  }
  attr {
    key: "dtype"
    value {
      type: DT_FLOAT
    }
  }
  attr {
    key: "value"
    value {
      tensor {
        dtype: DT_FLOAT
        tensor_shape {
        }
        float_val: 1.0
      }
    }
  }
}
node {
  name: "rnn/rnn/basic_lstm_cell/add_16"
  op: "Add"
  input: "rnn/rnn/basic_lstm_cell/split_8:2"
  input: "rnn/rnn/basic_lstm_cell/add_16/y"
  attr {
    key: "T"
    value {
      type: DT_FLOAT
    }
  }
  attr {
    key: "_output_shapes"
    value {
      list {
        shape {
          dim {
            size: -1
          }
          dim {
            size: 3
          }
        }
      }
    }
  }
}
node {
  name: "rnn/rnn/basic_lstm_cell/Sigmoid_24"
  op: "Sigmoid"
  input: "rnn/rnn/basic_lstm_cell/add_16"
  attr {
    key: "T"
    value {
      type: DT_FLOAT
    }
  }
  attr {
    key: "_output_shapes"
    value {
      list {
        shape {
          dim {
            size: -1
          }
          dim {
            size: 3
          }
        }
      }
    }
  }
}
node {
  name: "rnn/rnn/basic_lstm_cell/mul_24"
  op: "Mul"
  input: "rnn/rnn/basic_lstm_cell/add_15"
  input: "rnn/rnn/basic_lstm_cell/Sigmoid_24"
  attr {
    key: "T"
    value {
      type: DT_FLOAT
    }
  }
  attr {
    key: "_output_shapes"
    value {
      list {
        shape {
          dim {
            size: -1
          }
          dim {
            size: 3
          }
        }
      }
    }
  }
}
node {
  name: "rnn/rnn/basic_lstm_cell/Sigmoid_25"
  op: "Sigmoid"
  input: "rnn/rnn/basic_lstm_cell/split_8"
  attr {
    key: "T"
    value {
      type: DT_FLOAT
    }
  }
  attr {
    key: "_output_shapes"
    value {
      list {
        shape {
          dim {
            size: -1
          }
          dim {
            size: 3
          }
        }
      }
    }
  }
}
node {
  name: "rnn/rnn/basic_lstm_cell/Tanh_16"
  op: "Tanh"
  input: "rnn/rnn/basic_lstm_cell/split_8:1"
  attr {
    key: "T"
    value {
      type: DT_FLOAT
    }
  }
  attr {
    key: "_output_shapes"
    value {
      list {
        shape {
          dim {
            size: -1
          }
          dim {
            size: 3
          }
        }
      }
    }
  }
}
node {
  name: "rnn/rnn/basic_lstm_cell/mul_25"
  op: "Mul"
  input: "rnn/rnn/basic_lstm_cell/Sigmoid_25"
  input: "rnn/rnn/basic_lstm_cell/Tanh_16"
  attr {
    key: "T"
    value {
      type: DT_FLOAT
    }
  }
  attr {
    key: "_output_shapes"
    value {
      list {
        shape {
          dim {
            size: -1
          }
          dim {
            size: 3
          }
        }
      }
    }
  }
}
node {
  name: "rnn/rnn/basic_lstm_cell/add_17"
  op: "Add"
  input: "rnn/rnn/basic_lstm_cell/mul_24"
  input: "rnn/rnn/basic_lstm_cell/mul_25"
  attr {
    key: "T"
    value {
      type: DT_FLOAT
    }
  }
  attr {
    key: "_output_shapes"
    value {
      list {
        shape {
          dim {
            size: -1
          }
          dim {
            size: 3
          }
        }
      }
    }
  }
}
node {
  name: "rnn/rnn/basic_lstm_cell/Tanh_17"
  op: "Tanh"
  input: "rnn/rnn/basic_lstm_cell/add_17"
  attr {
    key: "T"
    value {
      type: DT_FLOAT
    }
  }
  attr {
    key: "_output_shapes"
    value {
      list {
        shape {
          dim {
            size: -1
          }
          dim {
            size: 3
          }
        }
      }
    }
  }
}
node {
  name: "rnn/rnn/basic_lstm_cell/Sigmoid_26"
  op: "Sigmoid"
  input: "rnn/rnn/basic_lstm_cell/split_8:3"
  attr {
    key: "T"
    value {
      type: DT_FLOAT
    }
  }
  attr {
    key: "_output_shapes"
    value {
      list {
        shape {
          dim {
            size: -1
          }
          dim {
            size: 3
          }
        }
      }
    }
  }
}
node {
  name: "rnn/rnn/basic_lstm_cell/mul_26"
  op: "Mul"
  input: "rnn/rnn/basic_lstm_cell/Tanh_17"
  input: "rnn/rnn/basic_lstm_cell/Sigmoid_26"
  attr {
    key: "T"
    value {
      type: DT_FLOAT
    }
  }
  attr {
    key: "_output_shapes"
    value {
      list {
        shape {
          dim {
            size: -1
          }
          dim {
            size: 3
          }
        }
      }
    }
  }
}
node {
  name: "rnn/rnn/basic_lstm_cell/basic_lstm_cell_9/concat/axis"
  op: "Const"
  attr {
    key: "_output_shapes"
    value {
      list {
        shape {
        }
      }
    }
  }
  attr {
    key: "dtype"
    value {
      type: DT_INT32
    }
  }
  attr {
    key: "value"
    value {
      tensor {
        dtype: DT_INT32
        tensor_shape {
        }
        int_val: 1
      }
    }
  }
}
node {
  name: "rnn/rnn/basic_lstm_cell/basic_lstm_cell_9/concat"
  op: "ConcatV2"
  input: "split:9"
  input: "rnn/rnn/basic_lstm_cell/mul_26"
  input: "rnn/rnn/basic_lstm_cell/basic_lstm_cell_9/concat/axis"
  attr {
    key: "N"
    value {
      i: 2
    }
  }
  attr {
    key: "T"
    value {
      type: DT_FLOAT
    }
  }
  attr {
    key: "Tidx"
    value {
      type: DT_INT32
    }
  }
  attr {
    key: "_output_shapes"
    value {
      list {
        shape {
          dim {
            size: -1
          }
          dim {
            size: 4
          }
        }
      }
    }
  }
}
node {
  name: "rnn/rnn/basic_lstm_cell/basic_lstm_cell_9/MatMul"
  op: "MatMul"
  input: "rnn/rnn/basic_lstm_cell/basic_lstm_cell_9/concat"
  input: "rnn/basic_lstm_cell/kernel/read"
  attr {
    key: "T"
    value {
      type: DT_FLOAT
    }
  }
  attr {
    key: "_output_shapes"
    value {
      list {
        shape {
          dim {
            size: -1
          }
          dim {
            size: 12
          }
        }
      }
    }
  }
  attr {
    key: "transpose_a"
    value {
      b: false
    }
  }
  attr {
    key: "transpose_b"
    value {
      b: false
    }
  }
}
node {
  name: "rnn/rnn/basic_lstm_cell/basic_lstm_cell_9/BiasAdd"
  op: "BiasAdd"
  input: "rnn/rnn/basic_lstm_cell/basic_lstm_cell_9/MatMul"
  input: "rnn/basic_lstm_cell/bias/read"
  attr {
    key: "T"
    value {
      type: DT_FLOAT
    }
  }
  attr {
    key: "_output_shapes"
    value {
      list {
        shape {
          dim {
            size: -1
          }
          dim {
            size: 12
          }
        }
      }
    }
  }
  attr {
    key: "data_format"
    value {
      s: "NHWC"
    }
  }
}
node {
  name: "rnn/rnn/basic_lstm_cell/Const_9"
  op: "Const"
  attr {
    key: "_output_shapes"
    value {
      list {
        shape {
        }
      }
    }
  }
  attr {
    key: "dtype"
    value {
      type: DT_INT32
    }
  }
  attr {
    key: "value"
    value {
      tensor {
        dtype: DT_INT32
        tensor_shape {
        }
        int_val: 4
      }
    }
  }
}
node {
  name: "rnn/rnn/basic_lstm_cell/split_9/split_dim"
  op: "Const"
  attr {
    key: "_output_shapes"
    value {
      list {
        shape {
        }
      }
    }
  }
  attr {
    key: "dtype"
    value {
      type: DT_INT32
    }
  }
  attr {
    key: "value"
    value {
      tensor {
        dtype: DT_INT32
        tensor_shape {
        }
        int_val: 1
      }
    }
  }
}
node {
  name: "rnn/rnn/basic_lstm_cell/split_9"
  op: "Split"
  input: "rnn/rnn/basic_lstm_cell/split_9/split_dim"
  input: "rnn/rnn/basic_lstm_cell/basic_lstm_cell_9/BiasAdd"
  attr {
    key: "T"
    value {
      type: DT_FLOAT
    }
  }
  attr {
    key: "_output_shapes"
    value {
      list {
        shape {
          dim {
            size: -1
          }
          dim {
            size: 3
          }
        }
        shape {
          dim {
            size: -1
          }
          dim {
            size: 3
          }
        }
        shape {
          dim {
            size: -1
          }
          dim {
            size: 3
          }
        }
        shape {
          dim {
            size: -1
          }
          dim {
            size: 3
          }
        }
      }
    }
  }
  attr {
    key: "num_split"
    value {
      i: 4
    }
  }
}
node {
  name: "rnn/rnn/basic_lstm_cell/add_18/y"
  op: "Const"
  attr {
    key: "_output_shapes"
    value {
      list {
        shape {
        }
      }
    }
  }
  attr {
    key: "dtype"
    value {
      type: DT_FLOAT
    }
  }
  attr {
    key: "value"
    value {
      tensor {
        dtype: DT_FLOAT
        tensor_shape {
        }
        float_val: 1.0
      }
    }
  }
}
node {
  name: "rnn/rnn/basic_lstm_cell/add_18"
  op: "Add"
  input: "rnn/rnn/basic_lstm_cell/split_9:2"
  input: "rnn/rnn/basic_lstm_cell/add_18/y"
  attr {
    key: "T"
    value {
      type: DT_FLOAT
    }
  }
  attr {
    key: "_output_shapes"
    value {
      list {
        shape {
          dim {
            size: -1
          }
          dim {
            size: 3
          }
        }
      }
    }
  }
}
node {
  name: "rnn/rnn/basic_lstm_cell/Sigmoid_27"
  op: "Sigmoid"
  input: "rnn/rnn/basic_lstm_cell/add_18"
  attr {
    key: "T"
    value {
      type: DT_FLOAT
    }
  }
  attr {
    key: "_output_shapes"
    value {
      list {
        shape {
          dim {
            size: -1
          }
          dim {
            size: 3
          }
        }
      }
    }
  }
}
node {
  name: "rnn/rnn/basic_lstm_cell/mul_27"
  op: "Mul"
  input: "rnn/rnn/basic_lstm_cell/add_17"
  input: "rnn/rnn/basic_lstm_cell/Sigmoid_27"
  attr {
    key: "T"
    value {
      type: DT_FLOAT
    }
  }
  attr {
    key: "_output_shapes"
    value {
      list {
        shape {
          dim {
            size: -1
          }
          dim {
            size: 3
          }
        }
      }
    }
  }
}
node {
  name: "rnn/rnn/basic_lstm_cell/Sigmoid_28"
  op: "Sigmoid"
  input: "rnn/rnn/basic_lstm_cell/split_9"
  attr {
    key: "T"
    value {
      type: DT_FLOAT
    }
  }
  attr {
    key: "_output_shapes"
    value {
      list {
        shape {
          dim {
            size: -1
          }
          dim {
            size: 3
          }
        }
      }
    }
  }
}
node {
  name: "rnn/rnn/basic_lstm_cell/Tanh_18"
  op: "Tanh"
  input: "rnn/rnn/basic_lstm_cell/split_9:1"
  attr {
    key: "T"
    value {
      type: DT_FLOAT
    }
  }
  attr {
    key: "_output_shapes"
    value {
      list {
        shape {
          dim {
            size: -1
          }
          dim {
            size: 3
          }
        }
      }
    }
  }
}
node {
  name: "rnn/rnn/basic_lstm_cell/mul_28"
  op: "Mul"
  input: "rnn/rnn/basic_lstm_cell/Sigmoid_28"
  input: "rnn/rnn/basic_lstm_cell/Tanh_18"
  attr {
    key: "T"
    value {
      type: DT_FLOAT
    }
  }
  attr {
    key: "_output_shapes"
    value {
      list {
        shape {
          dim {
            size: -1
          }
          dim {
            size: 3
          }
        }
      }
    }
  }
}
node {
  name: "rnn/rnn/basic_lstm_cell/add_19"
  op: "Add"
  input: "rnn/rnn/basic_lstm_cell/mul_27"
  input: "rnn/rnn/basic_lstm_cell/mul_28"
  attr {
    key: "T"
    value {
      type: DT_FLOAT
    }
  }
  attr {
    key: "_output_shapes"
    value {
      list {
        shape {
          dim {
            size: -1
          }
          dim {
            size: 3
          }
        }
      }
    }
  }
}
node {
  name: "rnn/rnn/basic_lstm_cell/Tanh_19"
  op: "Tanh"
  input: "rnn/rnn/basic_lstm_cell/add_19"
  attr {
    key: "T"
    value {
      type: DT_FLOAT
    }
  }
  attr {
    key: "_output_shapes"
    value {
      list {
        shape {
          dim {
            size: -1
          }
          dim {
            size: 3
          }
        }
      }
    }
  }
}
node {
  name: "rnn/rnn/basic_lstm_cell/Sigmoid_29"
  op: "Sigmoid"
  input: "rnn/rnn/basic_lstm_cell/split_9:3"
  attr {
    key: "T"
    value {
      type: DT_FLOAT
    }
  }
  attr {
    key: "_output_shapes"
    value {
      list {
        shape {
          dim {
            size: -1
          }
          dim {
            size: 3
          }
        }
      }
    }
  }
}
node {
  name: "rnn/rnn/basic_lstm_cell/mul_29"
  op: "Mul"
  input: "rnn/rnn/basic_lstm_cell/Tanh_19"
  input: "rnn/rnn/basic_lstm_cell/Sigmoid_29"
  attr {
    key: "T"
    value {
      type: DT_FLOAT
    }
  }
  attr {
    key: "_output_shapes"
    value {
      list {
        shape {
          dim {
            size: -1
          }
          dim {
            size: 3
          }
        }
      }
    }
  }
}
node {
  name: "random_normal/shape"
  op: "Const"
  attr {
    key: "_output_shapes"
    value {
      list {
        shape {
          dim {
            size: 2
          }
        }
      }
    }
  }
  attr {
    key: "dtype"
    value {
      type: DT_INT32
    }
  }
  attr {
    key: "value"
    value {
      tensor {
        dtype: DT_INT32
        tensor_shape {
          dim {
            size: 2
          }
        }
        tensor_content: "\003\000\000\000\002\000\000\000"
      }
    }
  }
}
node {
  name: "random_normal/mean"
  op: "Const"
  attr {
    key: "_output_shapes"
    value {
      list {
        shape {
        }
      }
    }
  }
  attr {
    key: "dtype"
    value {
      type: DT_FLOAT
    }
  }
  attr {
    key: "value"
    value {
      tensor {
        dtype: DT_FLOAT
        tensor_shape {
        }
        float_val: 0.0
      }
    }
  }
}
node {
  name: "random_normal/stddev"
  op: "Const"
  attr {
    key: "_output_shapes"
    value {
      list {
        shape {
        }
      }
    }
  }
  attr {
    key: "dtype"
    value {
      type: DT_FLOAT
    }
  }
  attr {
    key: "value"
    value {
      tensor {
        dtype: DT_FLOAT
        tensor_shape {
        }
        float_val: 1.0
      }
    }
  }
}
node {
  name: "random_normal/RandomStandardNormal"
  op: "RandomStandardNormal"
  input: "random_normal/shape"
  attr {
    key: "T"
    value {
      type: DT_INT32
    }
  }
  attr {
    key: "_output_shapes"
    value {
      list {
        shape {
          dim {
            size: 3
          }
          dim {
            size: 2
          }
        }
      }
    }
  }
  attr {
    key: "dtype"
    value {
      type: DT_FLOAT
    }
  }
  attr {
    key: "seed"
    value {
      i: 0
    }
  }
  attr {
    key: "seed2"
    value {
      i: 0
    }
  }
}
node {
  name: "random_normal/mul"
  op: "Mul"
  input: "random_normal/RandomStandardNormal"
  input: "random_normal/stddev"
  attr {
    key: "T"
    value {
      type: DT_FLOAT
    }
  }
  attr {
    key: "_output_shapes"
    value {
      list {
        shape {
          dim {
            size: 3
          }
          dim {
            size: 2
          }
        }
      }
    }
  }
}
node {
  name: "random_normal"
  op: "Add"
  input: "random_normal/mul"
  input: "random_normal/mean"
  attr {
    key: "T"
    value {
      type: DT_FLOAT
    }
  }
  attr {
    key: "_output_shapes"
    value {
      list {
        shape {
          dim {
            size: 3
          }
          dim {
            size: 2
          }
        }
      }
    }
  }
}
node {
  name: "Variable"
  op: "VariableV2"
  attr {
    key: "_output_shapes"
    value {
      list {
        shape {
          dim {
            size: 3
          }
          dim {
            size: 2
          }
        }
      }
    }
  }
  attr {
    key: "container"
    value {
      s: ""
    }
  }
  attr {
    key: "dtype"
    value {
      type: DT_FLOAT
    }
  }
  attr {
    key: "shape"
    value {
      shape {
        dim {
          size: 3
        }
        dim {
          size: 2
        }
      }
    }
  }
  attr {
    key: "shared_name"
    value {
      s: ""
    }
  }
}
node {
  name: "Variable/Assign"
  op: "Assign"
  input: "Variable"
  input: "random_normal"
  attr {
    key: "T"
    value {
      type: DT_FLOAT
    }
  }
  attr {
    key: "_class"
    value {
      list {
        s: "loc:@Variable"
      }
    }
  }
  attr {
    key: "_output_shapes"
    value {
      list {
        shape {
          dim {
            size: 3
          }
          dim {
            size: 2
          }
        }
      }
    }
  }
  attr {
    key: "use_locking"
    value {
      b: true
    }
  }
  attr {
    key: "validate_shape"
    value {
      b: true
    }
  }
}
node {
  name: "Variable/read"
  op: "Identity"
  input: "Variable"
  attr {
    key: "T"
    value {
      type: DT_FLOAT
    }
  }
  attr {
    key: "_class"
    value {
      list {
        s: "loc:@Variable"
      }
    }
  }
  attr {
    key: "_output_shapes"
    value {
      list {
        shape {
          dim {
            size: 3
          }
          dim {
            size: 2
          }
        }
      }
    }
  }
}
node {
  name: "random_normal_1/shape"
  op: "Const"
  attr {
    key: "_output_shapes"
    value {
      list {
        shape {
          dim {
            size: 1
          }
        }
      }
    }
  }
  attr {
    key: "dtype"
    value {
      type: DT_INT32
    }
  }
  attr {
    key: "value"
    value {
      tensor {
        dtype: DT_INT32
        tensor_shape {
          dim {
            size: 1
          }
        }
        int_val: 2
      }
    }
  }
}
node {
  name: "random_normal_1/mean"
  op: "Const"
  attr {
    key: "_output_shapes"
    value {
      list {
        shape {
        }
      }
    }
  }
  attr {
    key: "dtype"
    value {
      type: DT_FLOAT
    }
  }
  attr {
    key: "value"
    value {
      tensor {
        dtype: DT_FLOAT
        tensor_shape {
        }
        float_val: 0.0
      }
    }
  }
}
node {
  name: "random_normal_1/stddev"
  op: "Const"
  attr {
    key: "_output_shapes"
    value {
      list {
        shape {
        }
      }
    }
  }
  attr {
    key: "dtype"
    value {
      type: DT_FLOAT
    }
  }
  attr {
    key: "value"
    value {
      tensor {
        dtype: DT_FLOAT
        tensor_shape {
        }
        float_val: 1.0
      }
    }
  }
}
node {
  name: "random_normal_1/RandomStandardNormal"
  op: "RandomStandardNormal"
  input: "random_normal_1/shape"
  attr {
    key: "T"
    value {
      type: DT_INT32
    }
  }
  attr {
    key: "_output_shapes"
    value {
      list {
        shape {
          dim {
            size: 2
          }
        }
      }
    }
  }
  attr {
    key: "dtype"
    value {
      type: DT_FLOAT
    }
  }
  attr {
    key: "seed"
    value {
      i: 0
    }
  }
  attr {
    key: "seed2"
    value {
      i: 0
    }
  }
}
node {
  name: "random_normal_1/mul"
  op: "Mul"
  input: "random_normal_1/RandomStandardNormal"
  input: "random_normal_1/stddev"
  attr {
    key: "T"
    value {
      type: DT_FLOAT
    }
  }
  attr {
    key: "_output_shapes"
    value {
      list {
        shape {
          dim {
            size: 2
          }
        }
      }
    }
  }
}
node {
  name: "random_normal_1"
  op: "Add"
  input: "random_normal_1/mul"
  input: "random_normal_1/mean"
  attr {
    key: "T"
    value {
      type: DT_FLOAT
    }
  }
  attr {
    key: "_output_shapes"
    value {
      list {
        shape {
          dim {
            size: 2
          }
        }
      }
    }
  }
}
node {
  name: "Variable_1"
  op: "VariableV2"
  attr {
    key: "_output_shapes"
    value {
      list {
        shape {
          dim {
            size: 2
          }
        }
      }
    }
  }
  attr {
    key: "container"
    value {
      s: ""
    }
  }
  attr {
    key: "dtype"
    value {
      type: DT_FLOAT
    }
  }
  attr {
    key: "shape"
    value {
      shape {
        dim {
          size: 2
        }
      }
    }
  }
  attr {
    key: "shared_name"
    value {
      s: ""
    }
  }
}
node {
  name: "Variable_1/Assign"
  op: "Assign"
  input: "Variable_1"
  input: "random_normal_1"
  attr {
    key: "T"
    value {
      type: DT_FLOAT
    }
  }
  attr {
    key: "_class"
    value {
      list {
        s: "loc:@Variable_1"
      }
    }
  }
  attr {
    key: "_output_shapes"
    value {
      list {
        shape {
          dim {
            size: 2
          }
        }
      }
    }
  }
  attr {
    key: "use_locking"
    value {
      b: true
    }
  }
  attr {
    key: "validate_shape"
    value {
      b: true
    }
  }
}
node {
  name: "Variable_1/read"
  op: "Identity"
  input: "Variable_1"
  attr {
    key: "T"
    value {
      type: DT_FLOAT
    }
  }
  attr {
    key: "_class"
    value {
      list {
        s: "loc:@Variable_1"
      }
    }
  }
  attr {
    key: "_output_shapes"
    value {
      list {
        shape {
          dim {
            size: 2
          }
        }
      }
    }
  }
}
node {
  name: "MatMul"
  op: "MatMul"
  input: "rnn/rnn/basic_lstm_cell/mul_29"
  input: "Variable/read"
  attr {
    key: "T"
    value {
      type: DT_FLOAT
    }
  }
  attr {
    key: "_output_shapes"
    value {
      list {
        shape {
          dim {
            size: -1
          }
          dim {
            size: 2
          }
        }
      }
    }
  }
  attr {
    key: "transpose_a"
    value {
      b: false
    }
  }
  attr {
    key: "transpose_b"
    value {
      b: false
    }
  }
}
node {
  name: "add"
  op: "Add"
  input: "MatMul"
  input: "Variable_1/read"
  attr {
    key: "T"
    value {
      type: DT_FLOAT
    }
  }
  attr {
    key: "_output_shapes"
    value {
      list {
        shape {
          dim {
            size: -1
          }
          dim {
            size: 2
          }
        }
      }
    }
  }
}
node {
  name: "mean_squared_error/SquaredDifference"
  op: "SquaredDifference"
  input: "add"
  input: "concat_1"
  attr {
    key: "T"
    value {
      type: DT_FLOAT
    }
  }
  attr {
    key: "_output_shapes"
    value {
      list {
        shape {
          dim {
            size: -1
          }
          dim {
            size: 2
          }
        }
      }
    }
  }
}
node {
  name: "mean_squared_error/assert_broadcastable/weights"
  op: "Const"
  attr {
    key: "_output_shapes"
    value {
      list {
        shape {
        }
      }
    }
  }
  attr {
    key: "dtype"
    value {
      type: DT_FLOAT
    }
  }
  attr {
    key: "value"
    value {
      tensor {
        dtype: DT_FLOAT
        tensor_shape {
        }
        float_val: 1.0
      }
    }
  }
}
node {
  name: "mean_squared_error/assert_broadcastable/weights/shape"
  op: "Const"
  attr {
    key: "_output_shapes"
    value {
      list {
        shape {
          dim {
          }
        }
      }
    }
  }
  attr {
    key: "dtype"
    value {
      type: DT_INT32
    }
  }
  attr {
    key: "value"
    value {
      tensor {
        dtype: DT_INT32
        tensor_shape {
          dim {
          }
        }
      }
    }
  }
}
node {
  name: "mean_squared_error/assert_broadcastable/weights/rank"
  op: "Const"
  attr {
    key: "_output_shapes"
    value {
      list {
        shape {
        }
      }
    }
  }
  attr {
    key: "dtype"
    value {
      type: DT_INT32
    }
  }
  attr {
    key: "value"
    value {
      tensor {
        dtype: DT_INT32
        tensor_shape {
        }
        int_val: 0
      }
    }
  }
}
node {
  name: "mean_squared_error/assert_broadcastable/values/shape"
  op: "Shape"
  input: "mean_squared_error/SquaredDifference"
  attr {
    key: "T"
    value {
      type: DT_FLOAT
    }
  }
  attr {
    key: "_output_shapes"
    value {
      list {
        shape {
          dim {
            size: 2
          }
        }
      }
    }
  }
  attr {
    key: "out_type"
    value {
      type: DT_INT32
    }
  }
}
node {
  name: "mean_squared_error/assert_broadcastable/values/rank"
  op: "Const"
  attr {
    key: "_output_shapes"
    value {
      list {
        shape {
        }
      }
    }
  }
  attr {
    key: "dtype"
    value {
      type: DT_INT32
    }
  }
  attr {
    key: "value"
    value {
      tensor {
        dtype: DT_INT32
        tensor_shape {
        }
        int_val: 2
      }
    }
  }
}
node {
  name: "mean_squared_error/assert_broadcastable/static_scalar_check_success"
  op: "NoOp"
}
node {
  name: "mean_squared_error/ToFloat_3/x"
  op: "Const"
  input: "^mean_squared_error/assert_broadcastable/static_scalar_check_success"
  attr {
    key: "_output_shapes"
    value {
      list {
        shape {
        }
      }
    }
  }
  attr {
    key: "dtype"
    value {
      type: DT_FLOAT
    }
  }
  attr {
    key: "value"
    value {
      tensor {
        dtype: DT_FLOAT
        tensor_shape {
        }
        float_val: 1.0
      }
    }
  }
}
node {
  name: "mean_squared_error/Mul"
  op: "Mul"
  input: "mean_squared_error/SquaredDifference"
  input: "mean_squared_error/ToFloat_3/x"
  attr {
    key: "T"
    value {
      type: DT_FLOAT
    }
  }
  attr {
    key: "_output_shapes"
    value {
      list {
        shape {
          dim {
            size: -1
          }
          dim {
            size: 2
          }
        }
      }
    }
  }
}
node {
  name: "mean_squared_error/Const"
  op: "Const"
  input: "^mean_squared_error/assert_broadcastable/static_scalar_check_success"
  attr {
    key: "_output_shapes"
    value {
      list {
        shape {
          dim {
            size: 2
          }
        }
      }
    }
  }
  attr {
    key: "dtype"
    value {
      type: DT_INT32
    }
  }
  attr {
    key: "value"
    value {
      tensor {
        dtype: DT_INT32
        tensor_shape {
          dim {
            size: 2
          }
        }
        tensor_content: "\000\000\000\000\001\000\000\000"
      }
    }
  }
}
node {
  name: "mean_squared_error/Sum"
  op: "Sum"
  input: "mean_squared_error/Mul"
  input: "mean_squared_error/Const"
  attr {
    key: "T"
    value {
      type: DT_FLOAT
    }
  }
  attr {
    key: "Tidx"
    value {
      type: DT_INT32
    }
  }
  attr {
    key: "_output_shapes"
    value {
      list {
        shape {
        }
      }
    }
  }
  attr {
    key: "keep_dims"
    value {
      b: false
    }
  }
}
node {
  name: "mean_squared_error/num_present/Equal/y"
  op: "Const"
  input: "^mean_squared_error/assert_broadcastable/static_scalar_check_success"
  attr {
    key: "_output_shapes"
    value {
      list {
        shape {
        }
      }
    }
  }
  attr {
    key: "dtype"
    value {
      type: DT_FLOAT
    }
  }
  attr {
    key: "value"
    value {
      tensor {
        dtype: DT_FLOAT
        tensor_shape {
        }
        float_val: 0.0
      }
    }
  }
}
node {
  name: "mean_squared_error/num_present/Equal"
  op: "Equal"
  input: "mean_squared_error/ToFloat_3/x"
  input: "mean_squared_error/num_present/Equal/y"
  attr {
    key: "T"
    value {
      type: DT_FLOAT
    }
  }
  attr {
    key: "_output_shapes"
    value {
      list {
        shape {
        }
      }
    }
  }
}
node {
  name: "mean_squared_error/num_present/zeros_like"
  op: "Const"
  input: "^mean_squared_error/assert_broadcastable/static_scalar_check_success"
  attr {
    key: "_output_shapes"
    value {
      list {
        shape {
        }
      }
    }
  }
  attr {
    key: "dtype"
    value {
      type: DT_FLOAT
    }
  }
  attr {
    key: "value"
    value {
      tensor {
        dtype: DT_FLOAT
        tensor_shape {
        }
        float_val: 0.0
      }
    }
  }
}
node {
  name: "mean_squared_error/num_present/ones_like/Shape"
  op: "Const"
  input: "^mean_squared_error/assert_broadcastable/static_scalar_check_success"
  attr {
    key: "_output_shapes"
    value {
      list {
        shape {
          dim {
          }
        }
      }
    }
  }
  attr {
    key: "dtype"
    value {
      type: DT_INT32
    }
  }
  attr {
    key: "value"
    value {
      tensor {
        dtype: DT_INT32
        tensor_shape {
          dim {
          }
        }
      }
    }
  }
}
node {
  name: "mean_squared_error/num_present/ones_like/Const"
  op: "Const"
  input: "^mean_squared_error/assert_broadcastable/static_scalar_check_success"
  attr {
    key: "_output_shapes"
    value {
      list {
        shape {
        }
      }
    }
  }
  attr {
    key: "dtype"
    value {
      type: DT_FLOAT
    }
  }
  attr {
    key: "value"
    value {
      tensor {
        dtype: DT_FLOAT
        tensor_shape {
        }
        float_val: 1.0
      }
    }
  }
}
node {
  name: "mean_squared_error/num_present/ones_like"
  op: "Fill"
  input: "mean_squared_error/num_present/ones_like/Shape"
  input: "mean_squared_error/num_present/ones_like/Const"
  attr {
    key: "T"
    value {
      type: DT_FLOAT
    }
  }
  attr {
    key: "_output_shapes"
    value {
      list {
        shape {
        }
      }
    }
  }
}
node {
  name: "mean_squared_error/num_present/Select"
  op: "Select"
  input: "mean_squared_error/num_present/Equal"
  input: "mean_squared_error/num_present/zeros_like"
  input: "mean_squared_error/num_present/ones_like"
  attr {
    key: "T"
    value {
      type: DT_FLOAT
    }
  }
  attr {
    key: "_output_shapes"
    value {
      list {
        shape {
        }
      }
    }
  }
}
node {
  name: "mean_squared_error/num_present/broadcast_weights/assert_broadcastable/weights/shape"
  op: "Const"
  input: "^mean_squared_error/assert_broadcastable/static_scalar_check_success"
  attr {
    key: "_output_shapes"
    value {
      list {
        shape {
          dim {
          }
        }
      }
    }
  }
  attr {
    key: "dtype"
    value {
      type: DT_INT32
    }
  }
  attr {
    key: "value"
    value {
      tensor {
        dtype: DT_INT32
        tensor_shape {
          dim {
          }
        }
      }
    }
  }
}
node {
  name: "mean_squared_error/num_present/broadcast_weights/assert_broadcastable/weights/rank"
  op: "Const"
  input: "^mean_squared_error/assert_broadcastable/static_scalar_check_success"
  attr {
    key: "_output_shapes"
    value {
      list {
        shape {
        }
      }
    }
  }
  attr {
    key: "dtype"
    value {
      type: DT_INT32
    }
  }
  attr {
    key: "value"
    value {
      tensor {
        dtype: DT_INT32
        tensor_shape {
        }
        int_val: 0
      }
    }
  }
}
node {
  name: "mean_squared_error/num_present/broadcast_weights/assert_broadcastable/values/shape"
  op: "Shape"
  input: "mean_squared_error/SquaredDifference"
  input: "^mean_squared_error/assert_broadcastable/static_scalar_check_success"
  attr {
    key: "T"
    value {
      type: DT_FLOAT
    }
  }
  attr {
    key: "_output_shapes"
    value {
      list {
        shape {
          dim {
            size: 2
          }
        }
      }
    }
  }
  attr {
    key: "out_type"
    value {
      type: DT_INT32
    }
  }
}
node {
  name: "mean_squared_error/num_present/broadcast_weights/assert_broadcastable/values/rank"
  op: "Const"
  input: "^mean_squared_error/assert_broadcastable/static_scalar_check_success"
  attr {
    key: "_output_shapes"
    value {
      list {
        shape {
        }
      }
    }
  }
  attr {
    key: "dtype"
    value {
      type: DT_INT32
    }
  }
  attr {
    key: "value"
    value {
      tensor {
        dtype: DT_INT32
        tensor_shape {
        }
        int_val: 2
      }
    }
  }
}
node {
  name: "mean_squared_error/num_present/broadcast_weights/assert_broadcastable/static_scalar_check_success"
  op: "NoOp"
  input: "^mean_squared_error/assert_broadcastable/static_scalar_check_success"
}
node {
  name: "mean_squared_error/num_present/broadcast_weights/ones_like/Shape"
  op: "Shape"
  input: "mean_squared_error/SquaredDifference"
  input: "^mean_squared_error/assert_broadcastable/static_scalar_check_success"
  input: "^mean_squared_error/num_present/broadcast_weights/assert_broadcastable/static_scalar_check_success"
  attr {
    key: "T"
    value {
      type: DT_FLOAT
    }
  }
  attr {
    key: "_output_shapes"
    value {
      list {
        shape {
          dim {
            size: 2
          }
        }
      }
    }
  }
  attr {
    key: "out_type"
    value {
      type: DT_INT32
    }
  }
}
node {
  name: "mean_squared_error/num_present/broadcast_weights/ones_like/Const"
  op: "Const"
  input: "^mean_squared_error/assert_broadcastable/static_scalar_check_success"
  input: "^mean_squared_error/num_present/broadcast_weights/assert_broadcastable/static_scalar_check_success"
  attr {
    key: "_output_shapes"
    value {
      list {
        shape {
        }
      }
    }
  }
  attr {
    key: "dtype"
    value {
      type: DT_FLOAT
    }
  }
  attr {
    key: "value"
    value {
      tensor {
        dtype: DT_FLOAT
        tensor_shape {
        }
        float_val: 1.0
      }
    }
  }
}
node {
  name: "mean_squared_error/num_present/broadcast_weights/ones_like"
  op: "Fill"
  input: "mean_squared_error/num_present/broadcast_weights/ones_like/Shape"
  input: "mean_squared_error/num_present/broadcast_weights/ones_like/Const"
  attr {
    key: "T"
    value {
      type: DT_FLOAT
    }
  }
  attr {
    key: "_output_shapes"
    value {
      list {
        shape {
          dim {
            size: -1
          }
          dim {
            size: 2
          }
        }
      }
    }
  }
}
node {
  name: "mean_squared_error/num_present/broadcast_weights"
  op: "Mul"
  input: "mean_squared_error/num_present/Select"
  input: "mean_squared_error/num_present/broadcast_weights/ones_like"
  attr {
    key: "T"
    value {
      type: DT_FLOAT
    }
  }
  attr {
    key: "_output_shapes"
    value {
      list {
        shape {
          dim {
            size: -1
          }
          dim {
            size: 2
          }
        }
      }
    }
  }
}
node {
  name: "mean_squared_error/num_present/Const"
  op: "Const"
  input: "^mean_squared_error/assert_broadcastable/static_scalar_check_success"
  attr {
    key: "_output_shapes"
    value {
      list {
        shape {
          dim {
            size: 2
          }
        }
      }
    }
  }
  attr {
    key: "dtype"
    value {
      type: DT_INT32
    }
  }
  attr {
    key: "value"
    value {
      tensor {
        dtype: DT_INT32
        tensor_shape {
          dim {
            size: 2
          }
        }
        tensor_content: "\000\000\000\000\001\000\000\000"
      }
    }
  }
}
node {
  name: "mean_squared_error/num_present"
  op: "Sum"
  input: "mean_squared_error/num_present/broadcast_weights"
  input: "mean_squared_error/num_present/Const"
  attr {
    key: "T"
    value {
      type: DT_FLOAT
    }
  }
  attr {
    key: "Tidx"
…
  input: "report_uninitialized_variables/IsVariableInitialized_5"
  input: "report_uninitialized_variables/IsVariableInitialized_6"
  input: "report_uninitialized_variables/IsVariableInitialized_7"
  input: "report_uninitialized_variables/IsVariableInitialized_8"
  input: "report_uninitialized_variables/IsVariableInitialized_9"
  device: "/device:CPU:0"
  attr {
    key: "N"
    value {
      i: 10
    }
  }
  attr {
    key: "T"
    value {
      type: DT_BOOL
    }
  }
  attr {
    key: "_output_shapes"
    value {
      list {
        shape {
          dim {
            size: 10
          }
        }
      }
    }
  }
  attr {
    key: "axis"
    value {
      i: 0
    }
  }
}
node {
  name: "report_uninitialized_variables/LogicalNot"
  op: "LogicalNot"
  input: "report_uninitialized_variables/stack"
  device: "/device:CPU:0"
  attr {
    key: "_output_shapes"
    value {
      list {
        shape {
          dim {
            size: 10
          }
        }
      }
    }
  }
}
node {
  name: "report_uninitialized_variables/Const"
  op: "Const"
  device: "/device:CPU:0"
  attr {
    key: "_output_shapes"
    value {
      list {
        shape {
          dim {
            size: 10
          }
        }
      }
    }
  }
  attr {
    key: "dtype"
    value {
      type: DT_STRING
    }
  }
  attr {
    key: "value"
    value {
      tensor {
        dtype: DT_STRING
        tensor_shape {
          dim {
            size: 10
          }
        }
        string_val: "global_step"
        string_val: "rnn/basic_lstm_cell/kernel"
        string_val: "rnn/basic_lstm_cell/bias"
        string_val: "Variable"
        string_val: "Variable_1"
        string_val: "OptimizeLoss/learning_rate"
        string_val: "matching_filenames"
        string_val: "input_producer/limit_epochs/epochs"
        string_val: "root_mean_squared_error/total"
        string_val: "root_mean_squared_error/count"
      }
    }
  }
}
node {
  name: "report_uninitialized_variables/boolean_mask/Shape"
  op: "Const"
  device: "/device:CPU:0"
  attr {
    key: "_output_shapes"
    value {
      list {
        shape {
          dim {
            size: 1
          }
        }
      }
    }
  }
  attr {
    key: "dtype"
    value {
      type: DT_INT32
    }
  }
  attr {
    key: "value"
    value {
      tensor {
        dtype: DT_INT32
        tensor_shape {
          dim {
            size: 1
          }
        }
        int_val: 10
      }
    }
  }
}
node {
  name: "report_uninitialized_variables/boolean_mask/strided_slice/stack"
  op: "Const"
  device: "/device:CPU:0"
  attr {
    key: "_output_shapes"
    value {
      list {
        shape {
          dim {
            size: 1
          }
        }
      }
    }
  }
  attr {
    key: "dtype"
    value {
      type: DT_INT32
    }
  }
  attr {
    key: "value"
    value {
      tensor {
        dtype: DT_INT32
        tensor_shape {
          dim {
            size: 1
          }
        }
        int_val: 0
      }
    }
  }
}
node {
  name: "report_uninitialized_variables/boolean_mask/strided_slice/stack_1"
  op: "Const"
  device: "/device:CPU:0"
  attr {
    key: "_output_shapes"
    value {
      list {
        shape {
          dim {
            size: 1
          }
        }
      }
    }
  }
  attr {
    key: "dtype"
    value {
      type: DT_INT32
    }
  }
  attr {
    key: "value"
    value {
      tensor {
        dtype: DT_INT32
        tensor_shape {
          dim {
            size: 1
          }
        }
        int_val: 1
      }
    }
  }
}
node {
  name: "report_uninitialized_variables/boolean_mask/strided_slice/stack_2"
  op: "Const"
  device: "/device:CPU:0"
  attr {
    key: "_output_shapes"
    value {
      list {
        shape {
          dim {
            size: 1
          }
        }
      }
    }
  }
  attr {
    key: "dtype"
    value {
      type: DT_INT32
    }
  }
  attr {
    key: "value"
    value {
      tensor {
        dtype: DT_INT32
        tensor_shape {
          dim {
            size: 1
          }
        }
        int_val: 1
      }
    }
  }
}
node {
  name: "report_uninitialized_variables/boolean_mask/strided_slice"
  op: "StridedSlice"
  input: "report_uninitialized_variables/boolean_mask/Shape"
  input: "report_uninitialized_variables/boolean_mask/strided_slice/stack"
  input: "report_uninitialized_variables/boolean_mask/strided_slice/stack_1"
  input: "report_uninitialized_variables/boolean_mask/strided_slice/stack_2"
  device: "/device:CPU:0"
  attr {
    key: "Index"
    value {
      type: DT_INT32
    }
  }
  attr {
    key: "T"
    value {
      type: DT_INT32
    }
  }
  attr {
    key: "_output_shapes"
    value {
      list {
        shape {
          dim {
            size: 1
          }
        }
      }
    }
  }
  attr {
    key: "begin_mask"
    value {
      i: 1
    }
  }
  attr {
    key: "ellipsis_mask"
    value {
      i: 0
    }
  }
  attr {
    key: "end_mask"
    value {
      i: 0
    }
  }
  attr {
    key: "new_axis_mask"
    value {
      i: 0
    }
  }
  attr {
    key: "shrink_axis_mask"
    value {
      i: 0
    }
  }
}
node {
  name: "report_uninitialized_variables/boolean_mask/Prod/reduction_indices"
  op: "Const"
  device: "/device:CPU:0"
  attr {
    key: "_output_shapes"
    value {
      list {
        shape {
          dim {
            size: 1
          }
        }
      }
    }
  }
  attr {
    key: "dtype"
    value {
      type: DT_INT32
    }
  }
  attr {
    key: "value"
    value {
      tensor {
        dtype: DT_INT32
        tensor_shape {
          dim {
            size: 1
          }
        }
        int_val: 0
      }
    }
  }
}
node {
  name: "report_uninitialized_variables/boolean_mask/Prod"
  op: "Prod"
  input: "report_uninitialized_variables/boolean_mask/strided_slice"
  input: "report_uninitialized_variables/boolean_mask/Prod/reduction_indices"
  device: "/device:CPU:0"
  attr {
    key: "T"
    value {
      type: DT_INT32
    }
  }
  attr {
    key: "Tidx"
    value {
      type: DT_INT32
    }
  }
  attr {
    key: "_output_shapes"
    value {
      list {
        shape {
        }
      }
    }
  }
  attr {
    key: "keep_dims"
    value {
      b: false
    }
  }
}
node {
  name: "report_uninitialized_variables/boolean_mask/Shape_1"
  op: "Const"
  device: "/device:CPU:0"
  attr {
    key: "_output_shapes"
    value {
      list {
        shape {
          dim {
            size: 1
          }
        }
      }
    }
  }
  attr {
    key: "dtype"
    value {
      type: DT_INT32
    }
  }
  attr {
    key: "value"
    value {
      tensor {
        dtype: DT_INT32
        tensor_shape {
          dim {
            size: 1
          }
        }
        int_val: 10
      }
    }
  }
}
node {
  name: "report_uninitialized_variables/boolean_mask/strided_slice_1/stack"
  op: "Const"
  device: "/device:CPU:0"
  attr {
    key: "_output_shapes"
    value {
      list {
        shape {
          dim {
            size: 1
          }
        }
      }
    }
  }
  attr {
    key: "dtype"
    value {
      type: DT_INT32
    }
  }
  attr {
    key: "value"
    value {
      tensor {
        dtype: DT_INT32
        tensor_shape {
          dim {
            size: 1
          }
        }
        int_val: 1
      }
    }
  }
}
node {
  name: "report_uninitialized_variables/boolean_mask/strided_slice_1/stack_1"
  op: "Const"
  device: "/device:CPU:0"
  attr {
    key: "_output_shapes"
    value {
      list {
        shape {
          dim {
            size: 1
          }
        }
      }
    }
  }
  attr {
    key: "dtype"
    value {
      type: DT_INT32
    }
  }
  attr {
    key: "value"
    value {
      tensor {
        dtype: DT_INT32
        tensor_shape {
          dim {
            size: 1
          }
        }
        int_val: 0
      }
    }
  }
}
node {
  name: "report_uninitialized_variables/boolean_mask/strided_slice_1/stack_2"
  op: "Const"
  device: "/device:CPU:0"
  attr {
    key: "_output_shapes"
    value {
      list {
        shape {
          dim {
            size: 1
          }
        }
      }
    }
  }
  attr {
    key: "dtype"
    value {
      type: DT_INT32
    }
  }
  attr {
    key: "value"
    value {
      tensor {
        dtype: DT_INT32
        tensor_shape {
          dim {
            size: 1
          }
        }
        int_val: 1
      }
    }
  }
}
node {
  name: "report_uninitialized_variables/boolean_mask/strided_slice_1"
  op: "StridedSlice"
  input: "report_uninitialized_variables/boolean_mask/Shape_1"
  input: "report_uninitialized_variables/boolean_mask/strided_slice_1/stack"
  input: "report_uninitialized_variables/boolean_mask/strided_slice_1/stack_1"
  input: "report_uninitialized_variables/boolean_mask/strided_slice_1/stack_2"
  device: "/device:CPU:0"
  attr {
    key: "Index"
    value {
      type: DT_INT32
    }
  }
  attr {
    key: "T"
    value {
      type: DT_INT32
    }
  }
  attr {
    key: "_output_shapes"
    value {
      list {
        shape {
          dim {
          }
        }
      }
    }
  }
  attr {
    key: "begin_mask"
    value {
      i: 0
    }
  }
  attr {
    key: "ellipsis_mask"
    value {
      i: 0
    }
  }
  attr {
    key: "end_mask"
    value {
      i: 1
    }
  }
  attr {
    key: "new_axis_mask"
    value {
      i: 0
    }
  }
  attr {
    key: "shrink_axis_mask"
    value {
      i: 0
    }
  }
}
node {
  name: "report_uninitialized_variables/boolean_mask/concat/values_0"
  op: "Pack"
  input: "report_uninitialized_variables/boolean_mask/Prod"
  device: "/device:CPU:0"
  attr {
    key: "N"
    value {
      i: 1
    }
  }
  attr {
    key: "T"
    value {
      type: DT_INT32
    }
  }
  attr {
    key: "_output_shapes"
    value {
      list {
        shape {
          dim {
            size: 1
          }
        }
      }
    }
  }
  attr {
    key: "axis"
    value {
      i: 0
    }
  }
}
node {
  name: "report_uninitialized_variables/boolean_mask/concat/axis"
  op: "Const"
  device: "/device:CPU:0"
  attr {
    key: "_output_shapes"
    value {
      list {
        shape {
        }
      }
    }
  }
  attr {
    key: "dtype"
    value {
      type: DT_INT32
    }
  }
  attr {
    key: "value"
    value {
      tensor {
        dtype: DT_INT32
        tensor_shape {
        }
        int_val: 0
      }
    }
  }
}
node {
  name: "report_uninitialized_variables/boolean_mask/concat"
  op: "ConcatV2"
  input: "report_uninitialized_variables/boolean_mask/concat/values_0"
  input: "report_uninitialized_variables/boolean_mask/strided_slice_1"
  input: "report_uninitialized_variables/boolean_mask/concat/axis"
  device: "/device:CPU:0"
  attr {
    key: "N"
    value {
      i: 2
    }
  }
  attr {
    key: "T"
    value {
      type: DT_INT32
    }
  }
  attr {
    key: "Tidx"
    value {
      type: DT_INT32
    }
  }
  attr {
    key: "_output_shapes"
    value {
      list {
        shape {
          dim {
            size: 1
          }
        }
      }
    }
  }
}
node {
  name: "report_uninitialized_variables/boolean_mask/Reshape"
  op: "Reshape"
  input: "report_uninitialized_variables/Const"
  input: "report_uninitialized_variables/boolean_mask/concat"
  device: "/device:CPU:0"
  attr {
    key: "T"
    value {
      type: DT_STRING
    }
  }
  attr {
    key: "Tshape"
    value {
      type: DT_INT32
    }
  }
  attr {
    key: "_output_shapes"
    value {
      list {
        shape {
          dim {
            size: 10
          }
        }
      }
    }
  }
}
node {
  name: "report_uninitialized_variables/boolean_mask/Reshape_1/shape"
  op: "Const"
  device: "/device:CPU:0"
  attr {
    key: "_output_shapes"
    value {
      list {
        shape {
          dim {
            size: 1
          }
        }
      }
    }
  }
  attr {
    key: "dtype"
    value {
      type: DT_INT32
    }
  }
  attr {
    key: "value"
    value {
      tensor {
        dtype: DT_INT32
        tensor_shape {
          dim {
            size: 1
          }
        }
        int_val: -1
      }
    }
  }
}
node {
  name: "report_uninitialized_variables/boolean_mask/Reshape_1"
  op: "Reshape"
  input: "report_uninitialized_variables/LogicalNot"
  input: "report_uninitialized_variables/boolean_mask/Reshape_1/shape"
  device: "/device:CPU:0"
  attr {
    key: "T"
    value {
      type: DT_BOOL
    }
  }
  attr {
    key: "Tshape"
    value {
      type: DT_INT32
    }
  }
  attr {
    key: "_output_shapes"
    value {
      list {
        shape {
          dim {
            size: 10
          }
        }
      }
    }
  }
}
node {
  name: "report_uninitialized_variables/boolean_mask/Where"
  op: "Where"
  input: "report_uninitialized_variables/boolean_mask/Reshape_1"
  device: "/device:CPU:0"
  attr {
    key: "_output_shapes"
    value {
      list {
        shape {
          dim {
            size: -1
          }
          dim {
            size: 1
          }
        }
      }
    }
  }
}
node {
  name: "report_uninitialized_variables/boolean_mask/Squeeze"
  op: "Squeeze"
  input: "report_uninitialized_variables/boolean_mask/Where"
  device: "/device:CPU:0"
  attr {
    key: "T"
    value {
      type: DT_INT64
    }
  }
  attr {
    key: "_output_shapes"
    value {
      list {
        shape {
          dim {
            size: -1
          }
        }
      }
    }
  }
  attr {
    key: "squeeze_dims"
    value {
      list {
        i: 1
      }
    }
  }
}
node {
  name: "report_uninitialized_variables/boolean_mask/Gather"
  op: "Gather"
  input: "report_uninitialized_variables/boolean_mask/Reshape"
  input: "report_uninitialized_variables/boolean_mask/Squeeze"
  device: "/device:CPU:0"
  attr {
    key: "Tindices"
    value {
      type: DT_INT64
    }
  }
  attr {
    key: "Tparams"
    value {
      type: DT_STRING
    }
  }
  attr {
    key: "_output_shapes"
    value {
      list {
        shape {
          dim {
            size: -1
          }
        }
      }
    }
  }
  attr {
    key: "validate_indices"
    value {
      b: true
    }
  }
}
node {
  name: "report_uninitialized_resources/Const"
  op: "Const"
  device: "/device:CPU:0"
  attr {
    key: "_output_shapes"
    value {
      list {
        shape {
          dim {
          }
        }
      }
    }
  }
  attr {
    key: "dtype"
    value {
      type: DT_STRING
    }
  }
  attr {
    key: "value"
    value {
      tensor {
        dtype: DT_STRING
        tensor_shape {
          dim {
          }
        }
      }
    }
  }
}
node {
  name: "concat_2/axis"
  op: "Const"
  attr {
    key: "_output_shapes"
    value {
      list {
        shape {
        }
      }
    }
  }
  attr {
    key: "dtype"
    value {
      type: DT_INT32
    }
  }
  attr {
    key: "value"
    value {
      tensor {
        dtype: DT_INT32
        tensor_shape {
        }
        int_val: 0
      }
    }
  }
}
node {
  name: "concat_2"
  op: "ConcatV2"
  input: "report_uninitialized_variables/boolean_mask/Gather"
  input: "report_uninitialized_resources/Const"
  input: "concat_2/axis"
  attr {
    key: "N"
    value {
      i: 2
    }
  }
  attr {
    key: "T"
    value {
      type: DT_STRING
    }
  }
  attr {
    key: "Tidx"
    value {
      type: DT_INT32
    }
  }
  attr {
    key: "_output_shapes"
    value {
      list {
        shape {
          dim {
            size: -1
          }
        }
      }
    }
  }
}
node {
  name: "report_uninitialized_variables_1/IsVariableInitialized"
  op: "IsVariableInitialized"
  input: "global_step"
  attr {
    key: "_class"
    value {
      list {
        s: "loc:@global_step"
      }
    }
  }
  attr {
    key: "_output_shapes"
    value {
      list {
        shape {
        }
      }
    }
  }
  attr {
    key: "dtype"
    value {
      type: DT_INT64
    }
  }
}
node {
  name: "report_uninitialized_variables_1/IsVariableInitialized_1"
  op: "IsVariableInitialized"
  input: "rnn/basic_lstm_cell/kernel"
  attr {
    key: "_class"
    value {
      list {
        s: "loc:@rnn/basic_lstm_cell/kernel"
      }
    }
  }
  attr {
    key: "_output_shapes"
    value {
      list {
        shape {
        }
      }
    }
  }
  attr {
    key: "dtype"
    value {
      type: DT_FLOAT
    }
  }
}
node {
  name: "report_uninitialized_variables_1/IsVariableInitialized_2"
  op: "IsVariableInitialized"
  input: "rnn/basic_lstm_cell/bias"
  attr {
    key: "_class"
    value {
      list {
        s: "loc:@rnn/basic_lstm_cell/bias"
      }
    }
  }
  attr {
    key: "_output_shapes"
    value {
      list {
        shape {
        }
      }
    }
  }
  attr {
    key: "dtype"
    value {
      type: DT_FLOAT
    }
  }
}
node {
  name: "report_uninitialized_variables_1/IsVariableInitialized_3"
  op: "IsVariableInitialized"
  input: "Variable"
  attr {
    key: "_class"
    value {
      list {
        s: "loc:@Variable"
      }
    }
  }
  attr {
    key: "_output_shapes"
    value {
      list {
        shape {
        }
      }
    }
  }
  attr {
    key: "dtype"
    value {
      type: DT_FLOAT
    }
  }
}
node {
  name: "report_uninitialized_variables_1/IsVariableInitialized_4"
  op: "IsVariableInitialized"
  input: "Variable_1"
  attr {
    key: "_class"
    value {
      list {
        s: "loc:@Variable_1"
      }
    }
  }
  attr {
    key: "_output_shapes"
    value {
      list {
        shape {
        }
      }
    }
  }
  attr {
    key: "dtype"
    value {
      type: DT_FLOAT
    }
  }
}
node {
  name: "report_uninitialized_variables_1/IsVariableInitialized_5"
  op: "IsVariableInitialized"
  input: "OptimizeLoss/learning_rate"
  attr {
    key: "_class"
    value {
      list {
        s: "loc:@OptimizeLoss/learning_rate"
      }
    }
  }
  attr {
    key: "_output_shapes"
    value {
      list {
        shape {
        }
      }
    }
  }
  attr {
    key: "dtype"
    value {
      type: DT_FLOAT
    }
  }
}
node {
  name: "report_uninitialized_variables_1/stack"
  op: "Pack"
  input: "report_uninitialized_variables_1/IsVariableInitialized"
  input: "report_uninitialized_variables_1/IsVariableInitialized_1"
  input: "report_uninitialized_variables_1/IsVariableInitialized_2"
  input: "report_uninitialized_variables_1/IsVariableInitialized_3"
  input: "report_uninitialized_variables_1/IsVariableInitialized_4"
  input: "report_uninitialized_variables_1/IsVariableInitialized_5"
  device: "/device:CPU:0"
  attr {
    key: "N"
    value {
      i: 6
    }
  }
  attr {
    key: "T"
    value {
      type: DT_BOOL
    }
  }
  attr {
    key: "_output_shapes"
    value {
      list {
        shape {
          dim {
            size: 6
          }
        }
      }
    }
  }
  attr {
    key: "axis"
    value {
      i: 0
    }
  }
}
node {
  name: "report_uninitialized_variables_1/LogicalNot"
  op: "LogicalNot"
  input: "report_uninitialized_variables_1/stack"
  device: "/device:CPU:0"
  attr {
    key: "_output_shapes"
    value {
      list {
        shape {
          dim {
            size: 6
          }
        }
      }
    }
  }
}
node {
  name: "report_uninitialized_variables_1/Const"
  op: "Const"
  device: "/device:CPU:0"
  attr {
    key: "_output_shapes"
    value {
      list {
        shape {
          dim {
            size: 6
          }
        }
      }
    }
  }
  attr {
    key: "dtype"
    value {
      type: DT_STRING
    }
  }
  attr {
    key: "value"
    value {
      tensor {
        dtype: DT_STRING
        tensor_shape {
          dim {
            size: 6
          }
        }
        string_val: "global_step"
        string_val: "rnn/basic_lstm_cell/kernel"
        string_val: "rnn/basic_lstm_cell/bias"
        string_val: "Variable"
        string_val: "Variable_1"
        string_val: "OptimizeLoss/learning_rate"
      }
    }
  }
}
node {
  name: "report_uninitialized_variables_1/boolean_mask/Shape"
  op: "Const"
  device: "/device:CPU:0"
  attr {
    key: "_output_shapes"
    value {
      list {
        shape {
          dim {
            size: 1
          }
        }
      }
    }
  }
  attr {
    key: "dtype"
    value {
      type: DT_INT32
    }
  }
  attr {
    key: "value"
    value {
      tensor {
        dtype: DT_INT32
        tensor_shape {
          dim {
            size: 1
          }
        }
        int_val: 6
      }
    }
  }
}
node {
  name: "report_uninitialized_variables_1/boolean_mask/strided_slice/stack"
  op: "Const"
  device: "/device:CPU:0"
  attr {
    key: "_output_shapes"
    value {
      list {
        shape {
          dim {
            size: 1
          }
        }
      }
    }
  }
  attr {
    key: "dtype"
    value {
      type: DT_INT32
    }
  }
  attr {
    key: "value"
    value {
      tensor {
        dtype: DT_INT32
        tensor_shape {
          dim {
            size: 1
          }
        }
        int_val: 0
      }
    }
  }
}
node {
  name: "report_uninitialized_variables_1/boolean_mask/strided_slice/stack_1"
  op: "Const"
  device: "/device:CPU:0"
  attr {
    key: "_output_shapes"
    value {
      list {
        shape {
          dim {
            size: 1
          }
        }
      }
    }
  }
  attr {
    key: "dtype"
    value {
      type: DT_INT32
    }
  }
  attr {
    key: "value"
    value {
      tensor {
        dtype: DT_INT32
        tensor_shape {
          dim {
            size: 1
          }
        }
        int_val: 1
      }
    }
  }
}
node {
  name: "report_uninitialized_variables_1/boolean_mask/strided_slice/stack_2"
  op: "Const"
  device: "/device:CPU:0"
  attr {
    key: "_output_shapes"
    value {
      list {
        shape {
          dim {
            size: 1
          }
        }
      }
    }
  }
  attr {
    key: "dtype"
    value {
      type: DT_INT32
    }
  }
  attr {
    key: "value"
    value {
      tensor {
        dtype: DT_INT32
        tensor_shape {
          dim {
            size: 1
          }
        }
        int_val: 1
      }
    }
  }
}
node {
  name: "report_uninitialized_variables_1/boolean_mask/strided_slice"
  op: "StridedSlice"
  input: "report_uninitialized_variables_1/boolean_mask/Shape"
  input: "report_uninitialized_variables_1/boolean_mask/strided_slice/stack"
  input: "report_uninitialized_variables_1/boolean_mask/strided_slice/stack_1"
  input: "report_uninitialized_variables_1/boolean_mask/strided_slice/stack_2"
  device: "/device:CPU:0"
  attr {
    key: "Index"
    value {
      type: DT_INT32
    }
  }
  attr {
    key: "T"
    value {
      type: DT_INT32
    }
  }
  attr {
    key: "_output_shapes"
    value {
      list {
        shape {
          dim {
            size: 1
          }
        }
      }
    }
  }
  attr {
    key: "begin_mask"
    value {
      i: 1
    }
  }
  attr {
    key: "ellipsis_mask"
    value {
      i: 0
    }
  }
  attr {
    key: "end_mask"
    value {
      i: 0
    }
  }
  attr {
    key: "new_axis_mask"
    value {
      i: 0
    }
  }
  attr {
    key: "shrink_axis_mask"
    value {
      i: 0
    }
  }
}
node {
  name: "report_uninitialized_variables_1/boolean_mask/Prod/reduction_indices"
  op: "Const"
  device: "/device:CPU:0"
  attr {
    key: "_output_shapes"
    value {
      list {
        shape {
          dim {
            size: 1
          }
        }
      }
    }
  }
  attr {
    key: "dtype"
    value {
      type: DT_INT32
    }
  }
  attr {
    key: "value"
    value {
      tensor {
        dtype: DT_INT32
        tensor_shape {
          dim {
            size: 1
          }
        }
        int_val: 0
      }
    }
  }
}
node {
  name: "report_uninitialized_variables_1/boolean_mask/Prod"
  op: "Prod"
  input: "report_uninitialized_variables_1/boolean_mask/strided_slice"
  input: "report_uninitialized_variables_1/boolean_mask/Prod/reduction_indices"
  device: "/device:CPU:0"
  attr {
    key: "T"
    value {
      type: DT_INT32
    }
  }
  attr {
    key: "Tidx"
    value {
      type: DT_INT32
    }
  }
  attr {
    key: "_output_shapes"
    value {
      list {
        shape {
        }
      }
    }
  }
  attr {
    key: "keep_dims"
    value {
      b: false
    }
  }
}
node {
  name: "report_uninitialized_variables_1/boolean_mask/Shape_1"
  op: "Const"
  device: "/device:CPU:0"
  attr {
    key: "_output_shapes"
    value {
      list {
        shape {
          dim {
            size: 1
          }
        }
      }
    }
  }
  attr {
    key: "dtype"
    value {
      type: DT_INT32
    }
  }
  attr {
    key: "value"
    value {
      tensor {
        dtype: DT_INT32
        tensor_shape {
          dim {
            size: 1
          }
        }
        int_val: 6
      }
    }
  }
}
node {
  name: "report_uninitialized_variables_1/boolean_mask/strided_slice_1/stack"
  op: "Const"
  device: "/device:CPU:0"
  attr {
    key: "_output_shapes"
    value {
      list {
        shape {
          dim {
            size: 1
          }
        }
      }
    }
  }
  attr {
    key: "dtype"
    value {
      type: DT_INT32
    }
  }
  attr {
    key: "value"
    value {
      tensor {
        dtype: DT_INT32
        tensor_shape {
          dim {
            size: 1
          }
        }
        int_val: 1
      }
    }
  }
}
node {
  name: "report_uninitialized_variables_1/boolean_mask/strided_slice_1/stack_1"
  op: "Const"
  device: "/device:CPU:0"
  attr {
    key: "_output_shapes"
    value {
      list {
        shape {
          dim {
            size: 1
          }
        }
      }
    }
  }
  attr {
    key: "dtype"
    value {
      type: DT_INT32
    }
  }
  attr {
    key: "value"
    value {
      tensor {
        dtype: DT_INT32
        tensor_shape {
          dim {
            size: 1
          }
        }
        int_val: 0
      }
    }
  }
}
node {
  name: "report_uninitialized_variables_1/boolean_mask/strided_slice_1/stack_2"
  op: "Const"
  device: "/device:CPU:0"
  attr {
    key: "_output_shapes"
    value {
      list {
        shape {
          dim {
            size: 1
          }
        }
      }
    }
  }
  attr {
    key: "dtype"
    value {
      type: DT_INT32
    }
  }
  attr {
    key: "value"
    value {
      tensor {
        dtype: DT_INT32
        tensor_shape {
          dim {
            size: 1
          }
        }
        int_val: 1
      }
    }
  }
}
node {
  name: "report_uninitialized_variables_1/boolean_mask/strided_slice_1"
  op: "StridedSlice"
  input: "report_uninitialized_variables_1/boolean_mask/Shape_1"
  input: "report_uninitialized_variables_1/boolean_mask/strided_slice_1/stack"
  input: "report_uninitialized_variables_1/boolean_mask/strided_slice_1/stack_1"
  input: "report_uninitialized_variables_1/boolean_mask/strided_slice_1/stack_2"
  device: "/device:CPU:0"
  attr {
    key: "Index"
    value {
      type: DT_INT32
    }
  }
  attr {
    key: "T"
    value {
      type: DT_INT32
    }
  }
  attr {
    key: "_output_shapes"
    value {
      list {
        shape {
          dim {
          }
        }
      }
    }
  }
  attr {
    key: "begin_mask"
    value {
      i: 0
    }
  }
  attr {
    key: "ellipsis_mask"
    value {
      i: 0
    }
  }
  attr {
    key: "end_mask"
    value {
      i: 1
    }
  }
  attr {
    key: "new_axis_mask"
    value {
      i: 0
    }
  }
  attr {
    key: "shrink_axis_mask"
    value {
      i: 0
    }
  }
}
node {
  name: "report_uninitialized_variables_1/boolean_mask/concat/values_0"
  op: "Pack"
  input: "report_uninitialized_variables_1/boolean_mask/Prod"
  device: "/device:CPU:0"
  attr {
    key: "N"
    value {
      i: 1
    }
  }
  attr {
    key: "T"
    value {
      type: DT_INT32
    }
  }
  attr {
    key: "_output_shapes"
    value {
      list {
        shape {
          dim {
            size: 1
          }
        }
      }
    }
  }
  attr {
    key: "axis"
    value {
      i: 0
    }
  }
}
node {
  name: "report_uninitialized_variables_1/boolean_mask/concat/axis"
  op: "Const"
  device: "/device:CPU:0"
  attr {
    key: "_output_shapes"
    value {
      list {
        shape {
        }
      }
    }
  }
  attr {
    key: "dtype"
    value {
      type: DT_INT32
    }
  }
  attr {
    key: "value"
    value {
      tensor {
        dtype: DT_INT32
        tensor_shape {
        }
        int_val: 0
      }
    }
  }
}
node {
  name: "report_uninitialized_variables_1/boolean_mask/concat"
  op: "ConcatV2"
  input: "report_uninitialized_variables_1/boolean_mask/concat/values_0"
  input: "report_uninitialized_variables_1/boolean_mask/strided_slice_1"
  input: "report_uninitialized_variables_1/boolean_mask/concat/axis"
  device: "/device:CPU:0"
  attr {
    key: "N"
    value {
      i: 2
    }
  }
  attr {
    key: "T"
    value {
      type: DT_INT32
    }
  }
  attr {
    key: "Tidx"
    value {
      type: DT_INT32
    }
  }
  attr {
    key: "_output_shapes"
    value {
      list {
        shape {
          dim {
            size: 1
          }
        }
      }
    }
  }
}
node {
  name: "report_uninitialized_variables_1/boolean_mask/Reshape"
  op: "Reshape"
  input: "report_uninitialized_variables_1/Const"
  input: "report_uninitialized_variables_1/boolean_mask/concat"
  device: "/device:CPU:0"
  attr {
    key: "T"
    value {
      type: DT_STRING
    }
  }
  attr {
    key: "Tshape"
    value {
      type: DT_INT32
    }
  }
  attr {
    key: "_output_shapes"
    value {
      list {
        shape {
          dim {
            size: 6
          }
        }
      }
    }
  }
}
node {
  name: "report_uninitialized_variables_1/boolean_mask/Reshape_1/shape"
  op: "Const"
  device: "/device:CPU:0"
  attr {
    key: "_output_shapes"
    value {
      list {
        shape {
          dim {
            size: 1
          }
        }
      }
    }
  }
  attr {
    key: "dtype"
    value {
      type: DT_INT32
    }
  }
  attr {
    key: "value"
    value {
      tensor {
        dtype: DT_INT32
        tensor_shape {
          dim {
            size: 1
          }
        }
        int_val: -1
      }
    }
  }
}
node {
  name: "report_uninitialized_variables_1/boolean_mask/Reshape_1"
  op: "Reshape"
  input: "report_uninitialized_variables_1/LogicalNot"
  input: "report_uninitialized_variables_1/boolean_mask/Reshape_1/shape"
  device: "/device:CPU:0"
  attr {
    key: "T"
    value {
      type: DT_BOOL
    }
  }
  attr {
    key: "Tshape"
    value {
      type: DT_INT32
    }
  }
  attr {
    key: "_output_shapes"
    value {
      list {
        shape {
          dim {
            size: 6
          }
        }
      }
    }
  }
}
node {
  name: "report_uninitialized_variables_1/boolean_mask/Where"
  op: "Where"
  input: "report_uninitialized_variables_1/boolean_mask/Reshape_1"
  device: "/device:CPU:0"
  attr {
    key: "_output_shapes"
    value {
      list {
        shape {
          dim {
            size: -1
          }
          dim {
            size: 1
          }
        }
      }
    }
  }
}
node {
  name: "report_uninitialized_variables_1/boolean_mask/Squeeze"
  op: "Squeeze"
  input: "report_uninitialized_variables_1/boolean_mask/Where"
  device: "/device:CPU:0"
  attr {
    key: "T"
    value {
      type: DT_INT64
    }
  }
  attr {
    key: "_output_shapes"
    value {
      list {
        shape {
          dim {
            size: -1
          }
        }
      }
    }
  }
  attr {
    key: "squeeze_dims"
    value {
      list {
        i: 1
      }
    }
  }
}
node {
  name: "report_uninitialized_variables_1/boolean_mask/Gather"
  op: "Gather"
  input: "report_uninitialized_variables_1/boolean_mask/Reshape"
  input: "report_uninitialized_variables_1/boolean_mask/Squeeze"
  device: "/device:CPU:0"
  attr {
    key: "Tindices"
    value {
      type: DT_INT64
    }
  }
  attr {
    key: "Tparams"
    value {
      type: DT_STRING
    }
  }
  attr {
    key: "_output_shapes"
    value {
      list {
        shape {
          dim {
            size: -1
          }
        }
      }
    }
  }
  attr {
    key: "validate_indices"
    value {
      b: true
    }
  }
}
node {
  name: "init_2"
  op: "NoOp"
  input: "^matching_filenames/Assign"
  input: "^input_producer/limit_epochs/epochs/Assign"
  input: "^root_mean_squared_error/total/Assign"
  input: "^root_mean_squared_error/count/Assign"
}
node {
  name: "init_all_tables"
  op: "NoOp"
}
node {
  name: "group_deps_1"
  op: "NoOp"
  input: "^init_2"
  input: "^init_all_tables"
}
node {
  name: "Merge/MergeSummary"
  op: "MergeSummary"
  input: "input_producer/fraction_of_32_full"
  input: "OptimizeLoss/global_norm/gradient_norm"
  input: "OptimizeLoss/loss"
  attr {
    key: "N"
    value {
      i: 3
    }
  }
  attr {
    key: "_output_shapes"
    value {
      list {
        shape {
        }
      }
    }
  }
}
node {
  name: "save/Const"
  op: "Const"
  attr {
    key: "_output_shapes"
    value {
      list {
        shape {
        }
      }
    }
  }
  attr {
    key: "dtype"
    value {
      type: DT_STRING
    }
  }
  attr {
    key: "value"
    value {
      tensor {
        dtype: DT_STRING
        tensor_shape {
        }
        string_val: "model"
      }
    }
  }
}
node {
  name: "save/StringJoin/inputs_1"
  op: "Const"
  attr {
    key: "_output_shapes"
    value {
      list {
        shape {
        }
      }
    }
  }
  attr {
    key: "dtype"
    value {
      type: DT_STRING
    }
  }
  attr {
    key: "value"
    value {
      tensor {
        dtype: DT_STRING
        tensor_shape {
        }
        string_val: "_temp_76f6573aa6f0449a88d2932aede19d87/part"
      }
    }
  }
}
node {
  name: "save/StringJoin"
  op: "StringJoin"
  input: "save/Const"
  input: "save/StringJoin/inputs_1"
  attr {
    key: "N"
    value {
      i: 2
    }
  }
  attr {
    key: "_output_shapes"
    value {
      list {
        shape {
        }
      }
    }
  }
  attr {
    key: "separator"
    value {
      s: ""
    }
  }
}
node {
  name: "save/num_shards"
  op: "Const"
  attr {
    key: "_output_shapes"
    value {
      list {
        shape {
        }
      }
    }
  }
  attr {
    key: "dtype"
    value {
      type: DT_INT32
    }
  }
  attr {
    key: "value"
    value {
      tensor {
        dtype: DT_INT32
        tensor_shape {
        }
        int_val: 1
      }
    }
  }
}
node {
  name: "save/ShardedFilename/shard"
  op: "Const"
  attr {
    key: "_output_shapes"
    value {
      list {
        shape {
        }
      }
    }
  }
  attr {
    key: "dtype"
    value {
      type: DT_INT32
    }
  }
  attr {
    key: "value"
    value {
      tensor {
        dtype: DT_INT32
        tensor_shape {
        }
        int_val: 0
      }
    }
  }
}
node {
  name: "save/ShardedFilename"
  op: "ShardedFilename"
  input: "save/StringJoin"
  input: "save/ShardedFilename/shard"
  input: "save/num_shards"
  attr {
    key: "_output_shapes"
    value {
      list {
        shape {
        }
      }
    }
  }
}
node {
  name: "save/SaveV2/tensor_names"
  op: "Const"
  attr {
    key: "_output_shapes"
    value {
      list {
        shape {
          dim {
            size: 6
          }
        }
      }
    }
  }
  attr {
    key: "dtype"
    value {
      type: DT_STRING
    }
  }
  attr {
    key: "value"
    value {
      tensor {
        dtype: DT_STRING
        tensor_shape {
          dim {
            size: 6
          }
        }
        string_val: "OptimizeLoss/learning_rate"
        string_val: "Variable"
        string_val: "Variable_1"
        string_val: "global_step"
        string_val: "rnn/basic_lstm_cell/bias"
        string_val: "rnn/basic_lstm_cell/kernel"
      }
    }
  }
}
node {
  name: "save/SaveV2/shape_and_slices"
  op: "Const"
  attr {
    key: "_output_shapes"
    value {
      list {
        shape {
          dim {
            size: 6
          }
        }
      }
    }
  }
  attr {
    key: "dtype"
    value {
      type: DT_STRING
    }
  }
  attr {
    key: "value"
    value {
      tensor {
        dtype: DT_STRING
        tensor_shape {
          dim {
            size: 6
          }
        }
        string_val: ""
        string_val: ""
        string_val: ""
        string_val: ""
        string_val: ""
        string_val: ""
      }
    }
  }
}
node {
  name: "save/SaveV2"
  op: "SaveV2"
  input: "save/ShardedFilename"
  input: "save/SaveV2/tensor_names"
  input: "save/SaveV2/shape_and_slices"
  input: "OptimizeLoss/learning_rate"
  input: "Variable"
  input: "Variable_1"
  input: "global_step"
  input: "rnn/basic_lstm_cell/bias"
  input: "rnn/basic_lstm_cell/kernel"
  attr {
    key: "dtypes"
    value {
      list {
        type: DT_FLOAT
        type: DT_FLOAT
        type: DT_FLOAT
        type: DT_INT64
        type: DT_FLOAT
        type: DT_FLOAT
      }
    }
  }
}
node {
  name: "save/control_dependency"
  op: "Identity"
  input: "save/ShardedFilename"
  input: "^save/SaveV2"
  attr {
    key: "T"
    value {
      type: DT_STRING
    }
  }
  attr {
    key: "_class"
    value {
      list {
        s: "loc:@save/ShardedFilename"
      }
    }
  }
  attr {
    key: "_output_shapes"
    value {
      list {
        shape {
        }
      }
    }
  }
}
node {
  name: "save/MergeV2Checkpoints/checkpoint_prefixes"
  op: "Pack"
  input: "save/ShardedFilename"
  input: "^save/control_dependency"
  attr {
    key: "N"
    value {
      i: 1
    }
  }
  attr {
    key: "T"
    value {
      type: DT_STRING
    }
  }
  attr {
    key: "_output_shapes"
    value {
      list {
        shape {
          dim {
            size: 1
          }
        }
      }
    }
  }
  attr {
    key: "axis"
    value {
      i: 0
    }
  }
}
node {
  name: "save/MergeV2Checkpoints"
  op: "MergeV2Checkpoints"
  input: "save/MergeV2Checkpoints/checkpoint_prefixes"
  input: "save/Const"
  attr {
    key: "delete_old_dirs"
    value {
      b: true
    }
  }
}
node {
  name: "save/Identity"
  op: "Identity"
  input: "save/Const"
  input: "^save/control_dependency"
  input: "^save/MergeV2Checkpoints"
  attr {
    key: "T"
    value {
      type: DT_STRING
    }
  }
  attr {
    key: "_output_shapes"
    value {
      list {
        shape {
        }
      }
    }
  }
}
node {
  name: "save/RestoreV2/tensor_names"
  op: "Const"
  attr {
    key: "_output_shapes"
    value {
      list {
        shape {
          dim {
            size: 1
          }
        }
      }
    }
  }
  attr {
    key: "dtype"
    value {
      type: DT_STRING
    }
  }
  attr {
    key: "value"
    value {
      tensor {
        dtype: DT_STRING
        tensor_shape {
          dim {
            size: 1
          }
        }
        string_val: "OptimizeLoss/learning_rate"
      }
    }
  }
}
node {
  name: "save/RestoreV2/shape_and_slices"
  op: "Const"
  attr {
    key: "_output_shapes"
    value {
      list {
        shape {
          dim {
            size: 1
          }
        }
      }
    }
  }
  attr {
    key: "dtype"
    value {
      type: DT_STRING
    }
  }
  attr {
    key: "value"
    value {
      tensor {
        dtype: DT_STRING
        tensor_shape {
          dim {
            size: 1
          }
        }
        string_val: ""
      }
    }
  }
}
node {
  name: "save/RestoreV2"
  op: "RestoreV2"
  input: "save/Const"
  input: "save/RestoreV2/tensor_names"
  input: "save/RestoreV2/shape_and_slices"
  attr {
    key: "_output_shapes"
    value {
      list {
        shape {
          unknown_rank: true
        }
      }
    }
  }
  attr {
    key: "dtypes"
    value {
      list {
        type: DT_FLOAT
      }
    }
  }
}
node {
  name: "save/Assign"
  op: "Assign"
  input: "OptimizeLoss/learning_rate"
  input: "save/RestoreV2"
  attr {
    key: "T"
    value {
      type: DT_FLOAT
    }
  }
  attr {
    key: "_class"
    value {
      list {
        s: "loc:@OptimizeLoss/learning_rate"
      }
    }
  }
  attr {
    key: "_output_shapes"
    value {
      list {
        shape {
        }
      }
    }
  }
  attr {
    key: "use_locking"
    value {
      b: true
    }
  }
  attr {
    key: "validate_shape"
    value {
      b: true
    }
  }
}
node {
  name: "save/RestoreV2_1/tensor_names"
  op: "Const"
  attr {
    key: "_output_shapes"
    value {
      list {
        shape {
          dim {
            size: 1
          }
        }
      }
    }
  }
  attr {
    key: "dtype"
    value {
      type: DT_STRING
    }
  }
  attr {
    key: "value"
    value {
      tensor {
        dtype: DT_STRING
        tensor_shape {
          dim {
            size: 1
          }
        }
        string_val: "Variable"
      }
    }
  }
}
node {
  name: "save/RestoreV2_1/shape_and_slices"
  op: "Const"
  attr {
    key: "_output_shapes"
    value {
      list {
        shape {
          dim {
            size: 1
          }
        }
      }
    }
  }
  attr {
    key: "dtype"
    value {
      type: DT_STRING
    }
  }
  attr {
    key: "value"
    value {
      tensor {
        dtype: DT_STRING
        tensor_shape {
          dim {
            size: 1
          }
        }
        string_val: ""
      }
    }
  }
}
node {
  name: "save/RestoreV2_1"
  op: "RestoreV2"
  input: "save/Const"
  input: "save/RestoreV2_1/tensor_names"
  input: "save/RestoreV2_1/shape_and_slices"
  attr {
    key: "_output_shapes"
    value {
      list {
        shape {
          unknown_rank: true
        }
      }
    }
  }
  attr {
    key: "dtypes"
    value {
      list {
        type: DT_FLOAT
      }
    }
  }
}
node {
  name: "save/Assign_1"
  op: "Assign"
  input: "Variable"
  input: "save/RestoreV2_1"
  attr {
    key: "T"
    value {
      type: DT_FLOAT
    }
  }
  attr {
    key: "_class"
    value {
      list {
        s: "loc:@Variable"
      }
    }
  }
  attr {
    key: "_output_shapes"
    value {
      list {
        shape {
          dim {
            size: 3
          }
          dim {
            size: 2
          }
        }
      }
    }
  }
  attr {
    key: "use_locking"
    value {
      b: true
    }
  }
  attr {
    key: "validate_shape"
    value {
      b: true
    }
  }
}
node {
  name: "save/RestoreV2_2/tensor_names"
  op: "Const"
  attr {
    key: "_output_shapes"
    value {
      list {
        shape {
          dim {
            size: 1
          }
        }
      }
    }
  }
  attr {
    key: "dtype"
    value {
      type: DT_STRING
    }
  }
  attr {
    key: "value"
    value {
      tensor {
        dtype: DT_STRING
        tensor_shape {
          dim {
            size: 1
          }
        }
        string_val: "Variable_1"
      }
    }
  }
}
node {
  name: "save/RestoreV2_2/shape_and_slices"
  op: "Const"
  attr {
    key: "_output_shapes"
    value {
      list {
        shape {
          dim {
            size: 1
          }
        }
      }
    }
  }
  attr {
    key: "dtype"
    value {
      type: DT_STRING
    }
  }
  attr {
    key: "value"
    value {
      tensor {
        dtype: DT_STRING
        tensor_shape {
          dim {
            size: 1
          }
        }
        string_val: ""
      }
    }
  }
}
node {
  name: "save/RestoreV2_2"
  op: "RestoreV2"
  input: "save/Const"
  input: "save/RestoreV2_2/tensor_names"
  input: "save/RestoreV2_2/shape_and_slices"
  attr {
    key: "_output_shapes"
    value {
      list {
        shape {
          unknown_rank: true
        }
      }
    }
  }
  attr {
    key: "dtypes"
    value {
      list {
        type: DT_FLOAT
      }
    }
  }
}
node {
  name: "save/Assign_2"
  op: "Assign"
  input: "Variable_1"
  input: "save/RestoreV2_2"
  attr {
    key: "T"
    value {
      type: DT_FLOAT
    }
  }
  attr {
    key: "_class"
    value {
      list {
        s: "loc:@Variable_1"
      }
    }
  }
  attr {
    key: "_output_shapes"
    value {
      list {
        shape {
          dim {
            size: 2
          }
        }
      }
    }
  }
  attr {
    key: "use_locking"
    value {
      b: true
    }
  }
  attr {
    key: "validate_shape"
    value {
      b: true
    }
  }
}
node {
  name: "save/RestoreV2_3/tensor_names"
  op: "Const"
  attr {
    key: "_output_shapes"
    value {
      list {
        shape {
          dim {
            size: 1
          }
        }
      }
    }
  }
  attr {
    key: "dtype"
    value {
      type: DT_STRING
    }
  }
  attr {
    key: "value"
    value {
      tensor {
        dtype: DT_STRING
        tensor_shape {
          dim {
            size: 1
          }
        }
        string_val: "global_step"
      }
    }
  }
}
node {
  name: "save/RestoreV2_3/shape_and_slices"
  op: "Const"
  attr {
    key: "_output_shapes"
    value {
      list {
        shape {
          dim {
            size: 1
          }
        }
      }
    }
  }
  attr {
    key: "dtype"
    value {
      type: DT_STRING
    }
  }
  attr {
    key: "value"
    value {
      tensor {
        dtype: DT_STRING
        tensor_shape {
          dim {
            size: 1
          }
        }
        string_val: ""
      }
    }
  }
}
node {
  name: "save/RestoreV2_3"
  op: "RestoreV2"
  input: "save/Const"
  input: "save/RestoreV2_3/tensor_names"
  input: "save/RestoreV2_3/shape_and_slices"
  attr {
    key: "_output_shapes"
    value {
      list {
        shape {
          unknown_rank: true
        }
      }
    }
  }
  attr {
    key: "dtypes"
    value {
      list {
        type: DT_INT64
      }
    }
  }
}
node {
  name: "save/Assign_3"
  op: "Assign"
  input: "global_step"
  input: "save/RestoreV2_3"
  attr {
    key: "T"
    value {
      type: DT_INT64
    }
  }
  attr {
    key: "_class"
    value {
      list {
        s: "loc:@global_step"
      }
    }
  }
  attr {
    key: "_output_shapes"
    value {
      list {
        shape {
        }
      }
    }
  }
  attr {
    key: "use_locking"
    value {
      b: true
    }
  }
  attr {
    key: "validate_shape"
    value {
      b: true
    }
  }
}
node {
  name: "save/RestoreV2_4/tensor_names"
  op: "Const"
  attr {
    key: "_output_shapes"
    value {
      list {
        shape {
          dim {
            size: 1
          }
        }
      }
    }
  }
  attr {
    key: "dtype"
    value {
      type: DT_STRING
    }
  }
  attr {
    key: "value"
    value {
      tensor {
        dtype: DT_STRING
        tensor_shape {
          dim {
            size: 1
          }
        }
        string_val: "rnn/basic_lstm_cell/bias"
      }
    }
  }
}
node {
  name: "save/RestoreV2_4/shape_and_slices"
  op: "Const"
  attr {
    key: "_output_shapes"
    value {
      list {
        shape {
          dim {
            size: 1
          }
        }
      }
    }
  }
  attr {
    key: "dtype"
    value {
      type: DT_STRING
    }
  }
  attr {
    key: "value"
    value {
      tensor {
        dtype: DT_STRING
        tensor_shape {
          dim {
            size: 1
          }
        }
        string_val: ""
      }
    }
  }
}
node {
  name: "save/RestoreV2_4"
  op: "RestoreV2"
  input: "save/Const"
  input: "save/RestoreV2_4/tensor_names"
  input: "save/RestoreV2_4/shape_and_slices"
  attr {
    key: "_output_shapes"
    value {
      list {
        shape {
          unknown_rank: true
        }
      }
    }
  }
  attr {
    key: "dtypes"
    value {
      list {
        type: DT_FLOAT
      }
    }
  }
}
node {
  name: "save/Assign_4"
  op: "Assign"
  input: "rnn/basic_lstm_cell/bias"
  input: "save/RestoreV2_4"
  attr {
    key: "T"
    value {
      type: DT_FLOAT
    }
  }
  attr {
    key: "_class"
    value {
      list {
        s: "loc:@rnn/basic_lstm_cell/bias"
      }
    }
  }
  attr {
    key: "_output_shapes"
    value {
      list {
        shape {
          dim {
            size: 12
          }
        }
      }
    }
  }
  attr {
    key: "use_locking"
    value {
      b: true
    }
  }
  attr {
    key: "validate_shape"
    value {
      b: true
    }
  }
}
node {
  name: "save/RestoreV2_5/tensor_names"
  op: "Const"
  attr {
    key: "_output_shapes"
    value {
      list {
        shape {
          dim {
            size: 1
          }
        }
      }
    }
  }
  attr {
    key: "dtype"
    value {
      type: DT_STRING
    }
  }
  attr {
    key: "value"
    value {
      tensor {
        dtype: DT_STRING
        tensor_shape {
          dim {
            size: 1
          }
        }
        string_val: "rnn/basic_lstm_cell/kernel"
      }
    }
  }
}
node {
  name: "save/RestoreV2_5/shape_and_slices"
  op: "Const"
  attr {
    key: "_output_shapes"
    value {
      list {
        shape {
          dim {
            size: 1
          }
        }
      }
    }
  }
  attr {
    key: "dtype"
    value {
      type: DT_STRING
    }
  }
  attr {
    key: "value"
    value {
      tensor {
        dtype: DT_STRING
        tensor_shape {
          dim {
            size: 1
          }
        }
        string_val: ""
      }
    }
  }
}
node {
  name: "save/RestoreV2_5"
  op: "RestoreV2"
  input: "save/Const"
  input: "save/RestoreV2_5/tensor_names"
  input: "save/RestoreV2_5/shape_and_slices"
  attr {
    key: "_output_shapes"
    value {
      list {
        shape {
          unknown_rank: true
        }
      }
    }
  }
  attr {
    key: "dtypes"
    value {
      list {
        type: DT_FLOAT
      }
    }
  }
}
node {
  name: "save/Assign_5"
  op: "Assign"
  input: "rnn/basic_lstm_cell/kernel"
  input: "save/RestoreV2_5"
  attr {
    key: "T"
    value {
      type: DT_FLOAT
    }
  }
  attr {
    key: "_class"
    value {
      list {
        s: "loc:@rnn/basic_lstm_cell/kernel"
      }
    }
  }
  attr {
    key: "_output_shapes"
    value {
      list {
        shape {
          dim {
            size: 4
          }
          dim {
            size: 12
          }
        }
      }
    }
  }
  attr {
    key: "use_locking"
    value {
      b: true
    }
  }
  attr {
    key: "validate_shape"
    value {
      b: true
    }
  }
}
node {
  name: "save/restore_shard"
  op: "NoOp"
  input: "^save/Assign"
  input: "^save/Assign_1"
  input: "^save/Assign_2"
  input: "^save/Assign_3"
  input: "^save/Assign_4"
  input: "^save/Assign_5"
}
node {
  name: "save/restore_all"
  op: "NoOp"
  input: "^save/restore_shard"
}
versions {
  producer: 24
}
